PanSharpening/ktebdqdb/checkpoints/epoch=0-step=536.ckpt (torch, 944867 bytes, 76 tensors)

conv1.weight f4 [32, 4, 3, 3]
0.05883753 -0.15916881 0.03442251 -0.043557167 0.14049637 -0.03982651 -0.09470774 -0.123380125
-0.03229631 0.16304359 0.06446383 0.056400023 0.061372995 0.06042058 0.095141985 0.09550214
0.010742847 -0.05026515 -0.053122696 -0.13609655 -0.03209639 -0.12624058 0.044871334 0.00932733
-0.1541562 0.17641056 -0.06102061 -0.12478465 0.04393486 0.14729996 0.15857647 -0.05096351
0.015874717 0.14425592 -0.04535525 -0.108571924 -0.041609883 -0.048754234 0.18385477 0.13561985
0.115171865 -0.029393062 -0.09122515 -0.12272085 0.16158742 0.10650694 0.061450567 -0.17638806
-0.18054932 0.13357478 -0.12285227 -0.076296724 -0.13029404 -0.027679034 -0.04950727 0.15213053
-0.110328734 -0.07761994 0.18298878 -0.1193616 -0.0078262165 0.012077134 0.049428504 -0.13347328
0.13067657 0.012175666 0.11135074 0.1155086 0.123995714 0.1009889 0.054010633 0.07928979
0.03348939 0.14167416 0.048799902 -0.08569053 -0.098537676 -0.0036573007 0.14697984 0.10398633
-0.09882053 -0.055460308 0.1513915 0.08294858 0.022700636 0.04210313 0.04460767 0.009209216
0.10716789 -0.009465144 -0.12812245 -0.15673943 0.14701448 -0.14580962 -0.11509072 -0.00921269
-0.06429917 -0.15155186 -0.015671736 -0.018541606 -0.15703869 0.1670935 0.032321274 -0.15843204
-0.023585992 -0.096557595 0.110098794 0.013208384 0.044966515 0.07802105 -0.08382061 -0.0041677607
0.1382893 0.17622252 -0.025228895 0.16659828 0.06270972 0.17795613 -0.08661834 -0.118704036
0.09221184 0.09203046 -0.0016041155 -0.08149776 -0.10102894 0.04550413 0.01854775 0.05453466
0.16644178 0.05234081 -0.10789607 -0.028937053 -0.15579112 0.08276998 0.026934292 -0.12793463
0.17661032 0.1657335 -0.029684205 -0.018412758 -0.13487898 0.06370338 0.09332817 0.041438326
0.048907593 -0.0073678675 0.03467972 -0.1316738 -0.05334931 0.015410534 -0.049700726 -0.15022919
0.04727625 -0.019339416 0.06006507 0.056252614 0.13434881 -0.046862468 0.04069653 -0.024590127
0.14667286 -0.07259405 -0.078718506 -0.034850024 -0.1463386 -0.1088454 0.007718341 0.14880946
0.028475266 -0.13418105 0.03356535 0.045616593 -0.146841 0.11935669 -0.0532746 -0.022228459
0.11500861 0.013086854 -0.15213476 -0.15372829 0.08803964 0.13655162 0.013954989 0.042448957
-0.01658632 -0.1440355 -0.15935443 0.10246225 0.009411948 -0.08501145 0.15843867 -0.09726543
-0.030016914 0.14856279 -0.017720407 0.09557356 -0.010862757 -0.040064033 -0.038788535 0.106953606
0.08091548 -0.05459763 -0.07556394 0.025401615 0.06734128 -0.019820081 0.08892963 -0.13592081
0.15268913 0.1342757 -0.09163429 0.01484452 -0.012057672 -0.119690195 0.05692645 0.05637451
-0.016960107 -0.06320125 -0.077246346 -0.1069395 0.15461363 0.008435088 0.115279704 -0.10739506
-0.057049245 0.09644948 0.021160724 -0.10990945 0.01820018 -0.026756903 0.08296792 -0.04944909
-0.026067968 -0.1696537 -0.13947637 0.113000914 -0.116500415 0.12261143 -0.006933557 0.022909949
-0.1678539 0.08194833 -0.13271244 -0.049536664 -0.107652254 -0.05423835 0.15211736 0.13442817
0.054053064 0.10444658 -0.11282834 0.009004644 -0.07447122 -0.04725812 0.044596523 0.056702953
00000000: 9fff 703d 26fd 22be 9efe 0c3d 0069 32bd
00000010: 48de 0f3e 1f21 23bd 22f6 c1bd b8ae fcbd
00000020: 2349 04bd e6f4 263e 9d05 843d b603 673d
00000030: 4062 7b3d 927b 773d cdd9 c23d a096 c33d
00000040: c402 303c d4e2 4dbd 2f97 59bd e55c 0bbe
00000050: 8177 03bd 3645 01be 01cb 373d a8d1 183c
00000060: 1fdb 1dbe f8a4 343e bff0 79bd 188f ffbd
00000070: 0af5 333d cdd5 163e df61 223e 1dbf 50bd
00000080: b20b 823c d3b7 133e 6dc6 39bd f55a debd
00000090: 206f 2abd 85b2 47bd 6d44 3c3e eedf 0a3e
000000a0: 3adf eb3d b8c9 f0bc 40d4 babd 1255 fbbd
000000b0: 2c77 253e 5020 da3d 97b3 7b3d 129f 34be
000000c0: ece1 38be d4c7 083e f999 fbbd 7541 9cbd
000000d0: cd6b 05be 24bf e2bc 23c8 4abd 1bc8 1b3e
000000e0: 08f4 e1bd 34f7 9ebd 6961 3b3e db73 f4bd
000000f0: 8839 00bc 2cdf 453c 8b75 4a3d 38ad 08be
00000100: 14d0 053e 727c 473c db0b e43d c68f ec3d
00000110: 77f1 fd3d 45d3 ce3d 413a 5d3d af62 a23d
00000120: 2c2c 093d 0813 113e 68e2 473d 847e afbd
00000130: 1fce c9bd 53af 6fbb e281 163e c9f6 d43d
00000140: 6b62 cabd 592a 63bd 6006 1b3e f2e0 a93d
00000150: aff6 b93c 5574 2c3d 88b6 363d 40e2 163c
00000160: d77a db3d b113 1bbc 8832 03be 4d80 20be
00000170: f78a 163e 1e4f 15be afb4 ebbd d3f0 16bc
00000180: 49af 83bd 6930 1bbe 0362 80bc 91e4 97bc
00000190: c0ce 20be 8f1a 2b3e 5063 043d 023c 22be
000001a0: 6937 c1bc fdbf c5bd 7a7b e13d fa67 583c
000001b0: cf2e 383d 80c9 9f3d 24aa abbd b691 88bb
000001c0: b69b 0d3e ad73 343e d4ac cebc bd98 2a3e
000001d0: f46d 803d 223a 363e f564 b1bd 1a1b f3bd
000001e0: 90d9 bc3d 777a bc3d 2f41 d2ba 4ce8 a6bd
000001f0: 43e8 cebd 8a62 3a3d 73f1 973c bc5f 5f3d
00000200: b76f 2a3e 5163 563d 9df8 dcbd 660d edbc
00000210: b587 1fbe 4f83 a93d 4ea5 dc3c 4c01 03be
00000220: 56d9 343e 0bb6 293e 4a2c f3bc 5ad6 96bc
00000230: b71d 0abe eb76 823d d722 bf3d 3cbb 293d
00000240: 5453 483d 276e f1bb 520c 0e3d 7fd5 06be
00000250: ce84 5abd 777c 7c3c fd92 4bbd aed5 19be
00000260: bea4 413d b26d 9ebc ca06 763d 2469 663d
00000270: bc92 093e dcf2 3fbd 68b1 263d 3c71 c9bc
00000280: 6931 163e 30ac 94bd 2b37 a1bd e6be 0ebd
00000290: c9d9 15be 56ea debd 23ea fc3b 8261 183e
000002a0: f644 e93c c266 09be d27b 093d 77d8 3a3d
000002b0: 7d5d 16be 4871 f43d 7836 5abd 7518 b6bc
000002c0: a289 eb3d 3e6a 563c 37c9 1bbe f36a 1dbe
000002d0: 204e b43d 30d4 0b3e 77a3 643c f5de 2d3d
000002e0: 09e0 87bc 0b7e 13be cf2d 23be bad7 d13d
000002f0: 9234 1a3c 7c1a aebd bf3d 223e 1933 c7bd
00000300: 08e6 f5bc d820 183e 632a 91bc 12bc c33d
00000310: b5f9 31bc 2f1a 24bd bae0 1ebd 7e0a db3d
00000320: 04b7 a53d c4a1 5fbd 44c1 9abd 0c17 d03c
00000330: 3aea 893d b95d a2bc bd20 b63d d32e 0bbe
00000340: 8a5a 1c3e 927f 093e c2aa bbbd 6e36 733c
00000350: 8b8d 45bc 2220 f5bd b62b 693d f5e8 663d
00000360: ecef 8abc a86f 81bd 5533 9ebd 1903 dbbd
00000370: 0953 1e3e 5333 0a3c c417 ec3d f1f1 dbbd
00000380: 78ac 69bd 4e87 c53d 4159 ad3c 3518 e1bd
00000390: 8b18 953c 4b31 dbbc 16eb a93d 218b 4abd
000003a0: 7e8c d5bc b3b9 2dbe e5d2 0ebe 066d e73d
000003b0: c597 eebd b41b fb3d e432 e3bb a5ad bb3c
000003c0: e5e1 2bbe 87d4 a73d c5e5 07be f5e6 4abd
000003d0: c978 dcbd 0829 5ebd a7c4 1b3e 8aa7 093e
000003e0: bf66 5d3d 17e8 d53d 8b12 e7bd 3788 133c
000003f0: 5e84 98bd bb91 41bd d8aa 363d 5b41 683d

conv1.bias f4 [32]
0.13195202 0.0047445623 0.06558187 0.10633148 0.023685781 -0.02652528 0.13355759 -0.047855657
-0.04868699 -0.00823436 0.121458374 0.0067902263 -0.109360114 -0.13749695 -0.038785484 0.009274231
-0.11323974 0.1313565 -0.08578054 -0.08752577 0.072814584 0.03639357 0.15460621 0.12742704
-0.14659089 0.0030438798 0.024842832 0.15670513 0.010472764 -0.10962594 -0.09402771 0.049113322
00000000: 6e1e 073e 4678 9b3b ca4f 863d 52c4 d93d
00000010: af08 c23c 8b4b d9bc 52c3 083e 4b04 44bd
00000020: 026c 47bd 69e9 06bc 2bbf f83d 8c80 de3b
00000030: 32f8 dfbd 00cc 0cbe 87dd 1ebd f2f2 173c
00000040: 3dea e7bd 5182 063e b5ad afbd b640 b3bd
00000050: d01f 953d 6d11 153d 1751 1e3e 3c7c 023e
00000060: ec1b 16be d47b 473b 3283 cb3c 4f77 203e
00000070: f595 2b3c 9183 e0bd 9a91 c0bd 0d2b 493d

res1.conv20.weight f4 [32, 32, 3, 3]
-0.012735897 -0.057502363 0.043453146 0.034702994 -0.009249593 -0.040754277 0.048869904 0.03684716
0.013604331 -0.026977913 -0.0068749236 -0.027203713 -0.02429742 -0.05683857 -0.017900271 -0.077404626
-0.04542261 0.053883616 -0.037245724 0.07682173 0.00740801 -0.005282874 -0.046971053 0.007196339
0.048532777 -0.00027535623 0.04981163 0.008918476 -0.014431314 -0.0041661933 -0.016799178 -0.028505065
-0.01297494 0.03972796 -0.040347822 -0.03503498 -0.07185983 -0.021806575 0.034020457 -0.023447454
-0.06241369 -0.007668191 -0.05551067 -0.048287477 0.046138663 0.007815202 -0.06474635 0.009076561
0.04228656 -0.02411292 0.011896151 0.04104825 -0.010833591 -0.073463686 -0.05382615 0.027048532
0.0153585095 0.053910784 -0.0028655534 -0.0026796225 0.063055664 0.023555147 0.057336498 -0.0074255546
0.0023457662 0.04572684 0.03484675 -0.03390439 0.06515217 0.024854783 -0.0066320198 0.07417665
-0.0507702 0.030990493 -0.096155666 0.0115069505 -0.061679117 0.029809237 -0.026547786 -0.06172878
-0.036663074 0.042008817 -0.066532955 0.044909503 0.039538622 0.03912313 0.03600441 0.035933632
-0.022573594 0.057447314 -0.040529765 0.0072694602 -0.015427782 -0.023743166 -0.028101163 0.010880489
-0.03133381 -0.057268128 0.0047646966 0.04053586 -0.005144066 0.024375763 0.0026519545 -0.01829578
-0.014089037 0.01977664 -0.0003083335 0.05741758 0.026301049 -0.049664337 0.043421593 -0.013059442
0.005550437 0.02312481 0.05454564 0.05098934 -0.049567923 0.0025332049 -0.052659795 0.01792786
0.041102245 0.06391912 0.062086727 -0.054285496 0.04674391 0.0065036467 0.017894862 0.018093005
-0.03645146 -0.036950145 0.017408166 -0.019234663 0.035481654 -0.02079377 0.031020423 -0.04126991
-0.031772796 0.021605061 -0.03415073 -0.029018177 0.018578121 -0.018289512 -0.014975323 -0.027851854
0.033896435 -0.03859146 0.051185433 0.023959987 0.010008967 0.03746268 0.007318139 0.03629971
0.022712694 0.02462483 0.03596743 0.0077259466 -0.05622997 0.036045995 -0.0027305412 0.028180268
-0.0026253534 0.051696885 -0.038699575 -0.008451831 0.055261552 0.005802653 -0.015642842 -0.0029105362
-0.046105612 0.013458135 -0.03292174 0.015153479 -0.017784072 -0.055207368 -0.020227319 0.00093177013
0.051256154 0.044718813 -0.003739608 -0.056635726 0.008945219 0.021227013 0.034414157 0.037907306
0.00510842 -0.051415406 0.0346286 0.03976097 0.045368344 -0.063232176 -0.034299016 -0.011540684
-0.000943201 0.03140857 -0.030021712 0.006960779 0.010015726 -0.0009047822 0.0091313 0.007986456
0.04632058 -0.042655416 0.04500756 -0.027631259 -0.012507502 0.011854667 -0.02032813 0.057579935
0.013468025 -0.051312394 -0.003266218 -0.02628377 0.00892397 0.05341908 0.03118108 -0.015691813
0.007466524 -0.02611594 -0.05224911 0.051743682 0.044938605 -0.0056570694 0.051535476 0.03720067
-0.040609553 -0.023192938 0.012846813 -0.036125362 0.031785794 -0.011182489 0.03720928 0.05122682
-0.0032972603 0.0029043711 0.008541692 -0.03961664 -0.049922254 0.07514699 0.06599144 0.0019972143
0.057000082 0.005288622 0.023193263 0.03419862 -0.05505005 0.018321874 0.003712023 0.027500786
0.028418371 -0.040064674 0.052051943 0.012874146 -0.015506151 -0.055893004 0.026293457 -0.042792242
00000000: 39aa 50bc 9987 6bbd edfb 313d ba24 0e3d
00000010: 9b8b 17bc f5ed 26bd cf2b 483d 0ced 163d
00000020: b3e4 5e3c c900 ddbc 0a47 e1bb 52da debc
00000030: 620b c7bc 8fcf 68bd 97a3 92bc 5186 9ebd
00000040: 0f0d 3abd 11b5 5c3d f98e 18bd b654 9d3d
00000050: e4be f23b f61b adbb b864 40bd 44cf eb3b
00000060: 4eca 463d b05d 90b9 4807 4c3d cd1e 123c
00000070: 5171 6cbc 9084 88bb 6e9e 89bc 7483 e9bc
00000080: d894 54bc c9b9 223d c243 25bd d780 0fbd
00000090: 3f2b 93bd b4a3 b2bc 0959 0b3d e014 c0bc
000000a0: 7fa5 7fbd 7345 fbbb 285f 63bd 17c9 45bd
000000b0: e5fb 3c3d 550b 003c bc99 84bd dbb5 143c
000000c0: ac34 2d3d 7588 c5bc 13e8 423c 3622 283d
000000d0: 607f 31bc 2174 96bd cf78 5cbd e294 dd3c
000000e0: 42a2 7b3c 8ed1 5c3d 02cc 3bbb 9b9c 2fbb
000000f0: 5423 813d b9f6 c03c add9 6a3d 1152 f3bb
00000100: 6dbb 193b 114c 3b3d 77bb 0e3d 54df 0abd
00000110: 806e 853d 429c cb3c 6a51 d9bb ede9 973d
00000120: 6af4 4fbd c6df fd3c 43ed c4bd a687 3c3c
00000130: 3ea3 7cbd 8032 f43c be7a d9bc 51d7 7cbd
00000140: 052c 16bd 7011 2c3d 6e42 88bd 07f3 373d
00000150: 40f3 213d 933f 203d 5c79 133d 252f 133d
00000160: 42ec b8bc e04d 6b3d 8a02 26bd a734 ee3b
00000170: cfc4 7cbc 0781 c2bc 6934 e6bc 1444 323c
00000180: e257 00bd fc91 6abd 2c21 9c3b ee08 263d
00000190: 8e8f a8bb aeaf c73c 6acc 2d3b 08e1 95bc
000001a0: b4d5 66bc 9f02 a23c d2a7 a1b9 b22e 6b3d
000001b0: 4c75 d73c d56c 4bbd d7da 313d 45f7 55bc
000001c0: 71e0 b53b 3e70 bd3c 406b 5f3d 33da 503d
000001d0: bc07 4bbd 2004 263b ccb1 57bd 73dd 923c
000001e0: d45a 283d 07e8 823d a74e 7e3d 785a 5ebd
000001f0: 8b76 3f3d 8b1c d53b 3f98 923c c837 943c
00000200: 204e 15bd 0959 17bd 929b 8e3c 0392 9dbc
00000210: 3655 113d b257 aabc 8b1e fe3c a30a 29bd
00000220: 3124 02bd 19fd b03c a3e1 0bbd 87b7 edbc
00000230: 2531 983c e3d3 95bc 0f5b 75bc 9229 e4bc
00000240: fdd6 0a3d 1412 1ebd d1a7 513d bc47 c43c
00000250: a6fc 233c 7872 193d 00cd ef3b 01af 143d
00000260: f90f ba3c 03ba c93c 9552 133d f029 fd3b
00000270: 6651 66bd f7a4 133d e1f2 32bb 4eda e63c
00000280: 1f0e 2cbb 1dc0 533d 7283 1ebd 8c79 0abc
00000290: f059 623d 2e24 be3b 6b25 80bc b2be 3ebb
000002a0: 3dd9 3cbd 827f 5c3c f2d8 06bd 4c46 783c
000002b0: e7af 91bc 1f21 62bd c3b3 a5bc 0942 743a
000002c0: f9f1 513d 132b 373d 3614 75bb ddfa 67bd
000002d0: f88e 123c 46e4 ad3c dcf5 0c3d b144 1b3d
000002e0: 8864 a73b f698 52bd b8d6 0d3d 66dc 223d
000002f0: 28d4 393d df7f 81bd 207d 0cbd 2315 3dbc
00000300: 2641 77ba 46a6 003d 18f0 f5bc 3f17 e43b
00000310: 0019 243c e82e 6dba 739b 153c a0d9 023c
00000320: a6ba 3d3d 72b7 2ebd d959 383d f35a e2bc
00000330: 44ec 4cbc 143a 423c 2e87 a6bc f0d8 6b3d
00000340: fea8 5c3c f22c 52bd 0b0e 56bb 1051 d7bc
00000350: d835 123c f7cd 5a3d 776f ff3c 1e8c 80bc
00000360: bea9 f43b 19f1 d5bc 2a03 56bd 2ff1 533d
00000370: 8b11 383d f05e b9bb dd16 533d bb5f 183d
00000380: 3456 26bd 1eff bdbc 707b 523c 30f8 13bd
00000390: d231 023d c236 37bc c268 183d 37d3 513d
000003a0: d916 58bb 4357 3e3b 74f2 0b3c 0f45 22bd
000003b0: 477b 4cbd aae6 993d 8526 873d b2e3 023b
000003c0: eb78 693d 2d4c ad3b ccff bd3c da13 0c3d
000003d0: 297c 61bd c117 963c 6945 733b 5449 e13c
000003e0: a5cd e83c db1a 24bd 6b34 553d 15ee 523c
000003f0: 830d 7ebc 10f0 64bd 6065 d73c eb46 2fbd

res1.conv20.bias f4 [32]
-0.04888516 0.053196594 0.056838974 0.011960987 -0.025905833 0.044527728 0.009328591 0.009100078
-0.0060882503 0.01880926 0.017633079 -0.03028753 0.0025395672 0.024025455 -0.0027537018 0.04011256
0.040193837 -0.044556156 -0.04125309 0.009831198 -0.053607274 0.0034260945 -0.020929495 0.015444189
-0.04876605 -0.04548196 0.0354249 0.012655783 0.042456802 -0.04981581 0.007828018 -0.005366918
00000000: ce3b 48bd ace4 593d fccf 683d 04f8 433c
00000010: 7838 d4bc b562 363d f2d6 183c 7e18 153c
00000020: f27f c7bb e115 9a3c 3f73 903c 8e1d f8bc
00000030: de6e 263b 08d1 c43c 7377 34bb 114d 243d
00000040: 4ba2 243d 8480 36bd 00f9 28bd 0813 213c
00000050: 4d93 5bbd 5488 603b 5574 abbc a009 7d3c
00000060: e9be 47bd 4b4b 3abd b319 113d 345a 4f3c
00000070: 2fe7 2d3d aa0b 4cbd 1641 003c f9dc afbb

res1.conv21.weight f4 [32, 32, 3, 3]
-0.045838334 0.017633641 -0.05311131 -0.035262242 0.05676734 0.014764496 -0.044355888 -0.0023922918
0.032175094 -0.048104912 0.047888853 -0.042258464 0.015593406 0.05831076 -0.011023029 -0.01840694
0.019819554 0.055220205 -0.045604877 -0.03554047 -0.028698532 -0.053264953 -0.0033986045 -0.022191131
-0.061819356 -0.05697036 0.01937061 0.021745093 -0.041160863 0.015902793 0.05207038 0.0028322903
-0.081801884 0.005490224 0.041989863 0.033892915 -0.028867839 0.061218895 -0.032373764 0.00903473
-0.021478662 0.05893039 -0.03343386 -0.066356055 -0.057362746 0.05331175 -0.008357493 0.045943607
0.011595737 -0.033441614 0.010821075 -0.056692578 -0.030229006 0.03877537 0.05438062 -0.053909417
0.0074450225 -0.03391451 -0.014791689 0.051910307 -0.011256948 -0.05593507 -0.024164772 -0.032212034
-0.038950685 -0.04477005 0.03759714 0.0016643746 0.016898789 -0.015242072 0.039841034 0.011907395
-0.052625097 -0.027975649 0.025662107 -0.024359943 -0.0066663492 0.009019991 -0.031734645 -0.0007048364
-0.0018637868 0.044837702 0.0032990996 0.007650576 -0.050124783 0.025669785 -0.025409821 -0.01794153
0.047800086 -0.04913597 0.056176398 -0.013387752 -0.06035899 0.034881186 0.038732033 -0.053225853
-0.0080410605 -0.060255 -0.02873238 -0.006432711 0.028566537 -0.0030489664 -0.05583552 0.019617977
-0.059873126 0.017837206 0.025333077 -0.05990723 -0.009771199 0.05678631 0.029063037 0.052339014
0.040278967 -0.04589945 0.009567785 0.0221221 -0.04259716 0.021897152 -0.00093430857 0.0058794045
-0.019675937 0.032187812 -0.01683137 -0.02328645 -0.05398715 0.02190896 -0.038646445 0.03301609
-0.023392638 -0.06316408 0.03464828 0.0066612577 -0.0136299115 -0.056745265 0.021955727 -0.014095523
0.004787347 -0.057396054 -0.0057160347 -0.06837666 0.04359719 0.01924055 -0.053614832 0.01410879
-0.064886466 -0.05474865 0.0013749453 0.010330217 -0.086333305 -0.06696755 0.0035796885 -0.05517535
-0.033003032 0.01748608 0.02786762 0.07578448 0.065831915 0.049445994 -0.051097307 0.013500995
0.0506001 -0.08004228 0.029448058 0.014404658 0.030294184 0.029901966 0.0053740265 -0.04757436
0.035620984 0.045227036 -0.010032168 0.025893655 -0.056379173 0.03233233 -0.020355456 -0.04866781
0.03476466 -0.010920793 -0.04197439 0.018469732 -0.06185004 0.0060170223 -0.03624879 0.028356098
-0.017665176 -0.04173727 0.00078246696 -0.030106878 -0.056283116 -0.057349797 0.014452427 0.03800738
-0.0042544864 -0.012976709 -0.02979161 -0.018336881 0.003704296 -0.044949967 -0.041400634 0.058234766
0.02477403 0.014798013 0.00061704306 0.04607673 0.02455606 -0.076719865 -0.011961163 -0.038092997
-0.04213239 -0.043879196 0.0059415433 -0.006301299 0.029531626 -0.033388615 0.014613937 0.017349405
0.03440031 0.022131551 -0.01109437 0.029338896 -0.014905392 0.010119417 -0.015586388 0.037305646
0.022710383 -0.0016248986 -0.030620858 0.025664408 -0.025186824 0.04053321 0.04204621 0.07671463
0.042089127 0.01868945 0.025253603 0.02033587 0.015692042 0.015716916 -0.005035405 -0.03303338
-0.010235662 0.022053963 -0.031769898 -0.011537795 -0.00020490286 0.018523894 0.0008307833 0.0063357535
-0.036179952 -0.010544995 -0.01256931 0.021726305 -0.03290861 0.0014049496 0.021453518 -0.0060179154
00000000: fac0 3bbd 6d74 903c 3f8b 59bd 246f 10bd
00000010: df84 683d c9e6 713c 85ae 35bd ffc7 1cbb
00000020: 08ca 033d a809 45bd 1a27 443d 3617 2dbd
00000030: 7c7b 7f3c 43d7 6e3d ef99 34bc 27ca 96bc
00000040: 9e5c a23c 952e 623d 2ecc 3abd e292 11bd
00000050: 2f19 ebbc 5a2c 5abd 1fbb 5ebb 2dca b5bc
00000060: 4b36 7dbd c159 69bd 1daf 9e3c c422 b23c
00000070: 4b98 28bd 9346 823c c047 553d f29d 393b
00000080: bf87 a7bd 56e7 b33b 90fd 2b3d 4cd3 0a3d
00000090: 3f7c ecbc aac0 7a3d 5a9a 04bd 6706 143c
000000a0: 05f4 afbc fe60 713d f1f1 08bd afe5 87bd
000000b0: 33f5 6abd 6c5d 5a3d deed 08bc 5d2f 3c3d
000000c0: 0cfc 3d3c 13fa 08bd e14a 313c 7a36 68bd
000000d0: d2a2 f7bc ecd2 1e3d 37be 5e3d 1fd0 5cbd
000000e0: 60f5 f33b f1e9 0abd d758 72bc e79f 543d
000000f0: 106f 38bc 2c1c 65bd 33f5 c5bc c4f0 03bd
00000100: c18a 1fbd cd60 37bd 75ff 193d 2527 da3a
00000110: 546f 8a3c e2b9 79bc 5a30 233d 3c17 433c
00000120: 6a8d 57bd 302d e5bc 5739 d23c 818e c7bc
00000130: 6471 dabb 96c8 133c 30fc 01bd c5c4 38ba
00000140: 4f4a f4ba bda7 373d b535 583b afb1 fa3b
00000150: a54f 4dbd 7149 d23c 4228 d0bc 1efa 92bc
00000160: 06ca 433d cd42 49bd 3919 663d 4d58 5bbc
00000170: fd3a 77bd 93df 0e3d 7ba5 1e3d 5a03 5abd
00000180: a7be 03bc f2cd 76bd 2b60 ebbc 7ec9 d2bb
00000190: 5f04 ea3c 2bd1 47bb c9b3 64bd e1b5 a03c
000001a0: 863d 75bd 551f 923c 5087 cf3c 4961 75bd
000001b0: 6117 20bc c398 683d 9b15 ee3c 6f61 563d
000001c0: 8ffb 243d 1001 3cbd 33c2 1c3c 6839 b53c
000001d0: 5c7a 2ebd a861 b33c 63ec 74ba 05a8 c03b
000001e0: 6e2f a1bc 5ed7 033d f1e1 89bc 3ac3 bebc
000001f0: a121 5dbd 6b7a b33c bc4b 1ebd e13b 073d
00000200: eba1 bfbc 2b5c 81bd 5beb 0d3d ae46 da3b
00000210: fe4f 5fbc b96d 68bd 7fdc b33c e9f0 66bc
00000220: 2ddf 9c3b 2018 6bbd 934d bbbb 1009 8cbd
00000230: f892 323d 5c9e 9d3c 3a9b 5bbd 8e28 673c
00000240: 32e3 84bd 1f40 60bd 8237 b43a 1240 293c
00000250: 84cf b0bd 4826 89bd 3599 6a3b 8cff 61bd
00000260: 302e 07bd f83e 8f3c a34a e43c e534 9b3d
00000270: e2d2 863d e287 4a3d 694b 51bd 4733 5d3c
00000280: 0d42 4f3d 35ed a3bd 0e3d f13c 8401 6c3c
00000290: 822b f83c f8f4 f43c 9a18 b03b 55dd 42bd
000002a0: 4fe7 113d fc3f 393d f65d 24bc ee1e d43c
000002b0: d9ed 66bd e86e 043d 7cc0 a6bc e657 47bd
000002c0: 6365 0e3d 20ed 32bc 57ed 2bbd d64d 973c
000002d0: 7856 7dbd 712a c53b 9c79 14bd 0c4b e83c
000002e0: 8fb6 90bc b3f4 2abd 781e 4d3a b3a2 f6bc
000002f0: 2089 66bd 9fe7 6abd dfc9 6c3c a0ad 1b3d
00000300: 3869 8bbb 439c 54bc 890d f4bc 3a37 96bc
00000310: c6c3 723b 751d 38bd b693 29bd 9487 6e3d
00000320: e8f2 ca3c 5d73 723c 0fc1 213a f4ba 3c3d
00000330: ca29 c93c 4e1f 9dbd c1f8 43bc 6707 1cbd
00000340: 0393 2cbd acba 33bd 47b1 c23b 217b cebb
00000350: 4fec f13c 80c2 08bd 4b6f 6f3c 5720 8e3c
00000360: 57e7 0c3d 3a4d b53c 29c5 35bc 2058 f03c
00000370: bf35 74bc e9cb 253c 0d5e 7fbc cecd 183d
00000380: 200b ba3c 8dfa d4ba 98d8 fabc 2a3e d23c
00000390: 9954 cebc 2706 263d a638 2c3d 8f1c 9d3d
000003a0: a665 2c3d 9e1a 993c a5e0 ce3c 6997 a63c
000003b0: 998c 803c c3c0 803c 0a00 a5bb 024e 07bd
000003c0: 7ab3 27bc 83aa b43c 2721 02bd 0509 3dbc
000003d0: 31db 56b9 6cbf 973c ecc8 593a 279c cf3b
000003e0: 6e31 14bd eac4 2cbc 82ef 4dbc 5dfb b13c
000003f0: 2ecb 06bd 4926 b83a 4abf af3c ef31 c5bb

res1.conv21.bias f4 [32]
-0.026114592 0.0307711 0.0032553927 -0.019231023 0.0033230186 -0.038594197 -0.014743983 0.028170811
-0.046503138 0.041405447 -0.015825454 0.056400996 -0.027804013 0.031444017 -0.02514097 -0.05057638
0.013450947 -0.013928004 -0.028515374 0.042771704 0.027040904 0.01898041 -0.037378203 -0.050643113
0.042310342 0.029195132 -0.033543833 -0.027161358 -0.034387052 -0.037434433 -0.010950403 -0.01038735
00000000: 45ee d5bc ad13 fc3c 6d58 553b 618a 9dbc
00000010: 00c7 593b f314 1ebd bf90 71bc 79c6 e63c
00000020: 137a 3ebd c298 293d 62a4 81bc bb04 673d
00000030: 3ec5 e3bc 71cb 003d 6ff4 cdbc 2e29 4fbd
00000040: 5c61 5c3c 4832 64bc 1399 e9bc 6231 2f3d
00000050: e384 dd3c ce7c 9b3c e319 19bd 276f 4fbd
00000060: 9c4d 2d3d a12a ef3c 4265 09bd 7f81 debc
00000070: 70d9 0cbd d954 19bd 5269 33bc b42f 2abc

res2.conv20.weight f4 [32, 32, 3, 3]
0.048909016 0.031229269 0.034095403 -0.026249275 0.02822839 0.011376165 -0.053779326 -0.011920579
-0.0057062553 0.023343123 0.03038048 0.05131043 0.00017933606 0.04285633 0.034470767 0.06176815
0.033844374 0.021722794 0.062908836 -0.01105469 0.044999305 -0.030231632 -0.03494851 0.02224924
-0.013907232 0.05087207 -0.03012428 0.028769793 0.0139389625 0.007829262 0.023590894 -0.006968173
-0.028458852 -0.020941654 -0.047046468 -0.03951764 0.0039782003 0.018792683 0.050082397 0.012157467
0.06182981 0.024611419 0.045161325 0.06964075 0.04096457 -0.05794339 -0.047736745 0.029747171
0.04953705 0.03342559 -0.06513085 0.014470669 -0.06959385 -0.007963998 0.01790164 0.031151908
0.010698043 0.011534426 -0.033597525 -0.025257533 0.020468837 -0.031986058 0.0019522414 -0.035293087
0.02528233 -0.037950758 -0.06675344 0.018655526 0.05598983 -0.06532303 0.019771185 0.00027356434
0.04358983 0.017423054 -0.04883059 0.008616084 0.007795676 0.04719606 0.02670188 0.006923522
-0.033573657 0.028885169 -0.03584459 -0.06125756 -0.03662428 0.05683993 0.038065743 0.03121292
-0.040069953 0.028224522 0.011800929 0.052272882 0.0112801 -0.019361623 0.076594405 -0.05799423
0.052332807 0.050689615 -0.06195581 0.000667098 0.051893905 0.027029276 0.038700532 0.010373364
0.06981331 0.029252633 0.0027844904 0.06879481 0.006755313 -0.042845003 0.0005210974 0.036853388
0.032088522 -0.058860905 -0.027815688 -0.049354117 -0.03348633 0.0028278397 -0.065788455 -0.056317348
0.04057093 0.04574189 -0.018012624 0.040406067 0.025882507 0.028757771 -0.011001785 -0.061588414
-0.01810406 0.03050024 -0.008989251 0.055778544 0.047419097 -0.017512692 -0.022835147 -0.069918305
-0.039069295 -0.059368186 0.048314154 -0.019803394 -0.08221487 -0.05047641 0.08173392 -0.049480114
0.035958964 -0.011591111 -0.036993854 0.055453647 0.059749868 -0.03263591 -0.04317148 0.032067306
-0.0007371259 -0.003163549 0.024870161 -0.006090533 -0.02783365 0.0060145548 -0.02468951 -0.024529384
0.07892256 -0.052419737 -0.016292132 -0.052208945 -0.0087545775 -0.025258228 0.025809327 0.051091798
-0.053341366 -0.014136121 -0.037526086 0.05972203 -0.027570276 -0.011391527 0.030249251 0.008675932
0.029199036 0.017064666 -0.040733453 -0.011497593 0.026974864 0.0442575 0.021983152 0.044323444
-0.021493249 -0.03743334 0.05052901 -0.022100441 -0.013628962 -0.039808422 -0.003574183 0.032509968
-0.024887001 -0.035538435 0.0652678 0.055080045 0.013092295 0.06410268 0.060051568 -0.0480927
-0.051272683 0.0035060782 0.016887683 0.03604557 -0.021550711 -0.051341854 -0.024064379 -0.044618446
0.009524063 0.01948923 0.05967961 -0.042653114 0.062426787 -0.038875576 -0.03394499 0.052139174
0.046108317 0.05869383 0.024894873 -0.021474693 0.018138992 0.042152293 -0.03416959 0.022251915
0.010216423 -0.052382223 -0.023563823 -0.058095165 -0.023553802 0.0570508 -0.019111635 0.020271959
0.032746684 -0.011983799 0.067314185 -0.05608094 0.039970655 0.05023344 -0.059607316 0.0855595
0.003492169 -0.060503934 -0.014294867 -0.02049909 0.07568467 0.009873208 -0.03651169 0.019155584
0.020198248 0.047005273 0.027312761 -0.022228587 0.004128424 0.044115152 0.025706844 -0.020352455
00000000: d254 483d 86d4 ff3c 9fa7 0b3d b808 d7bc
00000010: 393f e73c 1863 3a3c b647 5cbd 884e 43bc
00000020: 8afb babb 143a bf3c 7ce0 f83c e32a 523d
00000030: 280c 3c39 1e8a 2f3d 3831 0d3d 9a00 7d3d
00000040: 66a0 0a3d 00f4 b13c 59d6 803d bb1e 35bc
00000050: 3151 383d 54a8 f7bc 2b26 0fbd 0a44 b63c
00000060: 29db 63bc 3b5f 503d 32c7 f6bc a1ae eb3c
00000070: 3f60 643c 4e46 003c b141 c13c 4655 e4bb
00000080: 8a22 e9bc d58d abbc ccb3 40bd 40dd 21bd
00000090: 905b 823b 1df3 993c 3323 4d3d 1d30 473c
000000a0: 4141 7d3d e39d c93c 15fb 383d cf9f 8e3d
000000b0: 77ca 273d 0c56 6dbd 9b87 43bd 57b0 f33c
000000c0: 5de7 4a3d 45e9 083d 5363 85bd 6316 6d3c
000000d0: 3887 8ebd 6e7b 02bc 76a6 923c 4932 ff3c
000000e0: d846 2f3c e4fa 3c3c 8f9d 09bd e3e8 cebc
000000f0: 43ae a73c d003 03bd 5ae2 ff3a 7c8f 10bd
00000100: e41c cf3c 4172 1bbd 07b6 88bd 79d3 983c
00000110: 9855 653d 15c8 85bd 2ef7 a13c 2f6d 8f39
00000120: 408b 323d cbba 8e3c 9602 48bd 7a2a 0d3c
00000130: df72 ff3b a850 413d e7bd da3c b6de e23b
00000140: 8884 09bd 97a0 ec3c c7d1 12bd 35e9 7abd
00000150: 5703 16bd fdd0 683d d3ea 1b3d 3db2 ff3c
00000160: 6420 24bd 1d37 e73c af58 413c 171c 563d
00000170: 2bd0 383c 449c 9ebc 87dd 9c3d 5c8b 6dbd
00000180: ed5a 563d ea9f 4f3d 60c5 7dbd 30e0 2e3a
00000190: b48e 543d 806c dd3c 7384 1e3d 0bf5 293c
000001a0: 48fa 8e3d 38a3 ef3c ff7b 363b 4be4 8c3d
000001b0: ac5b dd3b 3e7e 2fbd 419a 083a 94f3 163d
000001c0: 416f 033d 2218 71bd badd e3bc 8b27 4abd
000001d0: f628 09bd 4753 393b 19bc 86bd 05ad 66bd
000001e0: b42d 263d d95b 3b3d 368f 93bc d580 253d
000001f0: 8d07 d43c 6b95 eb3c d540 34bc 2244 7cbd
00000200: f74e 94bc a4db f93c a747 13bc 0b78 643d
00000210: 873a 423d c776 8fbc c610 bbbc 5431 8fbd
00000220: 2007 20bd 0e2c 73bd 10e5 453d ba3a a2bc
00000230: 4560 a8bd 5ac0 4ebd 1d64 a73d a9ab 4abd
00000240: b549 133d a5e8 3dbc de86 17bd 5d23 633d
00000250: 47bc 743d 3bad 05bd 94d4 30bd 0259 033d
00000260: af3b 41ba 8b53 4fbb 82bc cb3c 1893 c7bb
00000270: 6503 e4bc be15 c53b a841 cabc d9f1 c8bc
00000280: 27a2 a13d 14b6 56bd 1477 85bc 0cd9 55bd
00000290: 5c6f 0fbc 58ea cebc 156e d33c a245 513d
000002a0: 7a7c 5abd 309b 67bc f4b4 19bd 169f 743d
000002b0: 0fdb e1bc 87a3 3abc 47cd f73c 7f25 0e3c
000002c0: d132 ef3c 33cb 8b3c 1fd8 26bd 6660 3cbc
000002d0: 64fa dc3c 5a47 353d 0316 b43c 808c 353d
000002e0: 9c12 b0bc b453 19bd 82f7 4e3d fc0b b5bc
000002f0: 034c 5fbc 280e 23bd d73c 6abb 2c29 053d
00000300: d3df cbbc c090 11bd 20ab 853d 9d9b 613d
00000310: 1181 563c 4448 833d a2f8 753d dafc 44bd
00000320: 4e03 52bd 3bc6 653b 0a58 8a3c 85a4 133d
00000330: 1e8b b0bc d64b 52bd a922 c5bc d5c1 36bd
00000340: d10a 1c3c e1a7 9f3c 9b72 743d 08b5 2ebd
00000350: 3bb3 7f3d ff3b 1fbd e709 0bbd e38f 553d
00000360: 13dc 3c3d f168 703d 55f0 cb3c b2eb afbc
00000370: 3998 943c e2a7 2c3d 69f5 0bbd a649 b63c
00000380: c962 273c be8e 56bd eb08 c1bc 32f5 6dbd
00000390: e7f3 c0bc 1aae 693d 0190 9cbc 6111 a63c
000003a0: 6321 063d b257 44bc 05dc 893d 21b5 65bd
000003b0: 45b8 233d 94c1 4d3d cd26 74bd d239 af3d
000003c0: e0dc 643b f9d2 77bd 0535 6abc b5ed a7bc
000003d0: 9000 9b3d 3cc3 213c 488d 15bd 2cec 9c3c
000003e0: cc76 a53c 9a88 403d 03bf df3c ba18 b6bc
000003f0: bb47 873b 17b2 343d 2997 d23c 31ba a6bc

res2.conv20.bias f4 [32]
-0.019681739 -0.0035360083 -0.02811682 0.026094824 -0.015177549 0.0010202006 0.017867055 -0.031954337
0.013015302 0.046137255 0.049370952 0.021989036 -0.013226675 -0.019598095 -0.011206131 -0.03181083
-0.036233146 0.049334288 0.01913245 0.023841096 0.021085016 0.015313219 0.021662375 0.049058035
-0.026118387 0.01876717 -0.0057871803 0.020851262 0.03212496 0.01424889 0.008684358 0.015853932
00000000: 993b a1bc 60bc 67bb 3f55 e6bc d0c4 d53c
00000010: 41ab 78bc 40b8 853a ee5d 923c 8de2 02bd
00000020: 223e 553c 6bfa 3c3d 3239 4a3d 5a22 b43c
00000030: b2b4 58bc 2f8c a0bc ec99 37bc 134c 02bd
00000040: 3569 14bd c012 4a3d a8bb 9c3c 674e c33c
00000050: 7cba ac3c 4ce4 7a3c 4b75 b13c 14f1 483d
00000060: 3af6 d5bc 9cbd 993c 63a2 bdbb 44d0 aa3c
00000070: 7695 033d 2d74 693c d648 0e3c 1be0 813c

res2.conv21.weight f4 [32, 32, 3, 3]
-0.037689466 0.0072807665 0.024212247 -0.02528007 -0.07237739 -0.00683527 -0.0014219458 -0.0012197451
0.029705998 0.05070412 -0.035247345 -0.021269957 -0.028840791 -0.0061491495 -0.033385243 -0.027509686
-0.048226178 0.03705097 0.06280475 0.025046043 -0.008738335 -0.025652817 0.041188315 -0.046304528
-0.07215978 -0.054402616 -0.031695053 -0.040423337 -0.045368943 -0.02022503 0.03621867 0.027590249
0.027000414 -0.05045258 0.038147174 -0.046785958 0.043172274 -0.010355076 0.024428852 0.01650521
-0.060703844 -0.08401308 -0.03475676 0.01585162 -0.021195719 -0.02136554 -0.044432327 -0.020029023
-0.040797997 -0.050508067 -0.054271914 0.024517417 -0.009243217 -0.051727097 0.04482637 0.03002071
0.044961687 -0.017698592 0.03754385 0.0017708468 0.004956844 0.0038667684 0.0038154188 0.015221624
-0.05533701 -0.04847732 -0.04820555 -0.020303024 -0.031433027 -0.027317079 0.025158921 0.066928335
-0.04212474 0.012732127 -0.01858191 -0.06677782 -0.002180364 -0.02227801 0.04492448 0.013814125
0.013262824 0.00471055 -0.03644008 -0.03762278 -0.035077937 -0.027367458 0.039224446 0.04558787
0.013953186 0.0181633 -0.082029186 -0.04116099 0.0052144593 -0.012777989 -0.03171629 0.04768637
-0.07568406 -0.047269706 -0.021808075 0.007986145 -0.01170722 0.024806606 0.0173316 -0.050612144
0.04060226 0.014221077 0.048493788 -0.014524422 -0.045424383 -0.054203607 0.04369403 0.036068957
0.018948236 -0.019892072 0.03663948 -0.03124174 -0.012839935 -0.033637386 0.05209085 0.025728969
0.06156627 -0.045367938 0.010736891 0.013897779 -0.038251817 -0.05576428 -0.05612702 -0.06610614
-0.003104068 -0.033063956 -0.013802142 0.06425787 -0.06468943 -0.029990682 0.005042855 -0.041503087
-0.03893113 0.0038667563 0.03585885 -0.035233177 -0.004651506 0.010876339 -0.051745616 0.029540494
-0.036886476 -0.013969333 0.049847905 0.058821663 0.065156184 -0.01766348 -0.031940877 0.038998835
0.008207572 -0.0581199 -0.03956055 0.009961569 -0.0063933646 0.0026528474 0.03834637 0.0053657
-0.028626015 0.0033201629 0.031067116 0.034632158 0.039801635 -0.024932552 -0.048537374 0.013548551
-0.05474613 0.007828655 -0.01549495 -0.061527256 0.036658995 0.021490382 0.03120327 0.0367577
0.009452511 0.050586987 -0.0336722 0.050336998 -0.052703056 0.011305062 -0.036693707 -0.02856367
-0.058943864 0.0142227085 -0.019938422 -0.045944635 -0.040947303 -0.028778696 -0.03408087 0.042460274
0.017076625 -0.015599715 0.038460698 -0.018058972 0.048243914 0.03203182 0.0065090237 0.018830871
0.046716973 0.028394403 -0.044893272 -0.028143764 -0.027172582 -0.051395744 -0.050557375 -0.061964437
-0.052846827 0.027091969 -0.042106096 0.022019492 -0.058113813 0.03136344 0.059693843 -0.0010368826
-0.04416123 -0.0556966 -0.0312753 0.05026237 0.045804013 -0.012290324 0.04551857 -0.009807709
0.0106230285 0.036107454 0.026363917 -0.0016118878 -0.008455529 -0.00813893 0.048969433 -0.0074201436
0.030586058 -0.0017020857 0.027019044 0.0027002927 -0.026921112 0.04399301 -0.04955027 0.022689307
0.06719483 -0.014151971 -0.025887279 -0.025246117 -0.061673902 -0.041645054 0.010020811 0.037010018
-0.05376175 -0.002086219 -0.056421604 -0.06494552 -0.048705358 0.053440325 -0.0060639996 -0.005829055
00000000: 4560 1abd 7f93 ee3b c358 c63c 2618 cfbc
00000010: 993a 94bd 67fa dfbb 9560 baba dbdf 9fba
00000020: fe59 f33c 20af 4f3d 855f 10bd 553e aebc
00000030: 8643 ecbc ce7e c9bb f7be 08bd fe5b e1bc
00000040: d088 45bd c2c2 173d c79f 803d 5c2d cd3c
00000050: 3c2b 0fbc db25 d2bc 14b5 283d d1a9 3dbd
00000060: 82c8 93bd 47d5 5ebd acd2 01bd f192 25bd
00000070: c9d4 39bd f6ae a5bc 075a 143d f204 e23c
00000080: f92f dd3c 5da7 4ebd 3640 1c3d a2a2 3fbd
00000090: 69d5 303d 56a8 29bc 041f c83c ef35 873c
000000a0: 98a4 78bd 0d0f acbd 1b5d 0ebd 42db 813c
000000b0: a5a2 adbc c906 afbc acfe 35bd e813 a4bc
000000c0: cd1b 27bd 8ce1 4ebd 3a4c 5ebd c0d8 c83c
000000d0: dd70 17bc cbdf 53bd db9b 373d feed f53c
000000e0: bf29 383d a3fc 90bc 94c7 193d c21b e83a
000000f0: 056d a23b 9c69 7d3b 1b0c 7a3b 1e64 793c
00000100: 10a9 62bd 2790 46bd 2f73 45bd 8752 a6bc
00000110: ebbf 00bd 11c8 dfbc 151a ce3c b911 893d
00000120: fe8a 2cbd 699a 503c 1739 98bc cfc2 88bd
00000130: 70e4 0ebb 6080 b6bc bb02 383d a454 623c
00000140: 514c 593c f55a 9a3b 3142 15bd 581a 1abd
00000150: e2ad 0fbd b831 e0bc d0a9 203d 59ba 3a3d
00000160: e79b 643c 33cb 943c ebfe a7bd 6d98 28bd
00000170: 0ede aa3b c55a 51bc f1e8 01bd c852 433d
00000180: 3f00 9bbd e19d 41bd d9a6 b2bc 52d8 023c
00000190: a4cf 3fbc 3937 cb3c 00fb 8d3c ae4e 4fbd
000001a0: 8e4e 263d 85ff 683c 6ca1 463d d7f7 6dbc
000001b0: eb0e 3abd 9a04 5ebd 83f8 323d 0bbd 133d
000001c0: 5539 9b3c b3f4 a2bc 4813 163d adee ffbc
000001d0: 975e 52bc 5bc7 09bd 375d 553d 8fc5 d23c
000001e0: ea2c 7c3d bbd3 39bd c9e9 2f3c 83b3 633c
000001f0: f0ad 1cbd 1669 64bd 72e5 65bd a862 87bd
00000200: 9f6d 4bbb 126e 07bd 6122 62bc a199 833d
00000210: e47b 84bd 05af f5bc 893e a53b 24ff 29bd
00000220: 4076 1fbd 6869 7d3b bbe0 123d aa50 10bd
00000230: a96b 98bb ac32 323c 36f3 53bd e8fe f13c
00000240: 4616 17bd a1df 64bc 512d 4c3d fcee 703d
00000250: 9b70 853d 01b3 90bc 70d4 02bd 3ebd 1f3d
00000260: 0d79 063c 220f 6ebd 3e0a 22bd d935 233c
00000270: 6e7f d1bb 65db 2d3b 1511 1d3d c1d2 af3b
00000280: 1b81 eabc 1797 593b 7780 fe3c 73da 0d3d
00000290: 0a07 233d 5a3f ccbc 20cf 46bd befa 5d3c
000002a0: 7a3d 60bd c243 003c 88de 7dbc 0104 7cbd
000002b0: be27 163d 990c b03c 009e ff3c 3e8f 163d
000002c0: b4de 1a3c 4d34 4f3d dceb 09bd 2b2e 4e3d
000002d0: 29df 57bd de38 393c 244c 16bd 5cfe e9bc
000002e0: 1f6f 71bd 5d06 693c e755 a3bc 7130 3cbd
000002f0: 5cb8 27bd 4dc1 ebbc 6298 0bbd d3ea 2d3d
00000300: 47e4 8b3c f295 7fbc f788 1d3d 69f0 93bc
00000310: 699b 453d cc33 033d a649 d53b 3343 9a3c
00000320: 4c5a 3f3d 619b e83c 02e2 37bd c08d e6bc
00000330: 0999 debc 5884 52bd 4015 4fbd 6cce 7dbd
00000340: ea75 58bd faef dd3c 7177 2cbd 3962 b43c
00000350: c008 6ebd f376 003d 8881 743d 02e8 87ba
00000360: 68e2 34bd 1e22 64bd 871a 00bd eadf 4d3d
00000370: fd9c 3b3d 5b5d 49bc ae71 3a3d 83b0 20bc
00000380: 360c 2e3c 69e5 133d 24f9 d73c fb45 d3ba
00000390: 0f89 0abc 2659 05bc 2c94 483d ad24 f3bb
000003a0: 9d8f fa3c 8518 dfba 0b57 dd3c 65f7 303b
000003b0: aa89 dcbc 0432 343d 39f5 4abd edde b93c
000003c0: 719d 893d abdd 67bc 8f11 d4bc f2d0 cebc
000003d0: c69d 7cbd 0194 2abd 542e 243c d197 173d
000003e0: 4835 5cbd f2b8 08bb 571a 67bd 2802 85bd
000003f0: 457f 47bd 3ee4 5a3d 84b4 c6bb a801 bfbb

res2.conv21.bias f4 [32]
0.008493773 -0.056018963 0.03062016 -0.059640024 0.026913486 -0.020831423 0.04067097 0.03911378
-0.019776594 -0.036444183 0.00725326 -0.055483744 -0.008291198 0.030578543 -0.0017430377 -0.027903665
-0.009136728 -0.003965305 -0.02288829 -0.05023406 0.016597243 0.05016331 -0.01431547 0.0077578225
0.007053241 0.0310645 0.020479076 0.051220413 0.047588807 0.005061213 0.051389888 0.020006012
00000000: 7729 0b3c 2474 65bd 21d7 fa3c 1949 74bd
00000010: ac79 dc3c a9a6 aabc 9a96 263d c535 203d
00000020: 8602 a2bc 7f46 15bd c1ac ed3b ec42 63bd
00000030: ced7 07bc da7f fa3c a476 e4ba 3a96 e4bc
00000040: 37b2 15bc 64ef 81bb 3980 bbbc 3bc2 4dbd
00000050: f1f6 873c 0b78 4d3d 6f8b 6abc 5535 fe3b
00000060: e01e e73b fa7a fe3c bcc3 a73c 7fcc 513d
00000070: 7bec 423d 88d8 a53b 347e 523d a6e3 a33c

res3.conv20.weight f4 [32, 32, 3, 3]
-0.044733554 -0.03829237 0.039191537 0.032736268 -0.0020732174 -0.037695806 0.04756442 -0.015360297
-0.045306947 -0.04106928 0.051886182 -0.0103440555 0.027368331 0.06279038 0.004100302 -0.0016508037
0.023225406 -0.047557715 -0.016807381 0.04953112 0.045820646 0.033855315 -0.0050422694 -0.056210786
-0.022908242 -0.044133596 0.052626923 0.0015504853 0.011953002 0.037979007 -0.011470451 0.057818204
0.026453706 -0.036152944 -0.021629026 0.030227147 0.007192314 -0.029081432 0.055270422 0.03452945
0.010607655 0.023486365 -0.05058865 0.044805147 0.043165054 -0.013140407 0.013957332 -0.046976946
0.014684378 -0.056393377 -0.04236896 -0.04951021 0.03736466 0.023046767 0.016297985 0.017571649
-0.0062300325 0.0066941753 0.022852255 0.035507545 -0.024564834 -0.045734126 -0.029112797 -0.058631085
0.0027886734 -0.0054347664 -0.022645185 -0.0056212535 -0.008113705 0.045791052 0.0034752463 -0.0069965245
-0.039222308 0.05325953 -0.010248591 0.019357748 -0.04249781 -0.05582188 -0.032509394 -0.017775614
-0.049230125 0.06507387 0.017452257 0.019939784 -0.04972392 0.01842349 0.029552048 -0.011908534
0.044430383 0.0032918944 0.030019779 0.035183642 0.005832075 -0.040743776 -0.038747862 0.008940853
0.051160872 0.03969 -0.043014657 -0.049816575 0.05161392 -0.011815472 0.053548224 -0.009960576
-0.0026337535 0.0149899125 0.054509122 0.0013172618 0.008184725 0.04323327 0.020041734 -0.07566931
-0.010419367 0.032998137 0.0030981293 -0.058339752 -0.012968005 0.007051512 0.014734055 -0.0062920437
0.0006510219 0.0569056 0.013902786 0.035253774 -0.054218933 -0.051954955 -0.018616926 0.058787588
-0.03608811 0.00045596753 0.076753534 0.03345773 -0.016153608 0.009021769 -0.004339104 -0.009342701
-0.0794301 -0.06788769 -0.049837343 0.023873763 -0.014827732 -0.055211395 -0.015074148 -0.029303623
0.0008195479 -0.0068623326 0.065392144 -0.01457476 0.01381696 -0.008607387 -0.01852682 -0.025981082
-0.002609545 0.05526444 -0.003538459 -0.023614682 0.046352457 -0.047240596 -0.032701124 -0.008074092
0.0076360786 -0.03407756 0.043700505 -0.0010025661 0.03348991 -0.029094096 -0.04057323 0.06481817
0.0227042 -0.013112672 -0.010912882 0.02341234 -0.020993087 0.010159936 0.021750893 -0.0173595
-0.029420083 0.022031162 -0.017153563 0.0348851 -0.0010002257 0.032896224 -0.04801551 -0.045111902
-0.0131102 0.01705753 -0.01290255 0.0038082942 0.052945834 -0.029229274 -0.00245219 0.0060978476
-0.011842412 0.06231467 0.015913451 0.022580178 0.008361829 0.067504354 -0.02485914 0.0026507373
0.033630833 0.031067727 0.011909984 -0.016269345 0.033644095 0.02918638 0.012987405 -0.031227088
-0.04908954 -0.032275014 -0.0026871979 0.022883315 0.016781915 0.0459655 0.042277273 -0.04859686
-0.03344177 0.021287648 -0.046816375 -0.038507294 0.013025704 0.026486438 -0.0010168456 -0.0050532846
0.030159168 0.016218144 -0.031533554 -0.03990957 0.008444084 0.036879804 -0.040989455 -0.047398638
-0.03256316 -0.05361656 -0.031409096 0.061012134 0.034539115 0.026275441 -0.015218494 0.027217586
0.053817533 -0.050657384 0.015682122 -0.0074572773 0.040795557 -0.012054801 -0.009013891 -0.018175857
0.01591889 0.011860698 -0.04213392 0.0084953355 0.0130146695 0.023606004 0.07050009 0.06433255
00000000: 883a 37bd 76d8 1cbd 4e87 203d 7716 063d
00000010: d1de 07bb eb66 1abd e9d2 423d c1a9 7bbc
00000020: c793 39bd 4338 28bd 9b86 543d 1d7a 29bc
00000030: 8d33 e03c 3e98 803d d35b 863b c85f d8ba
00000040: 3543 be3c e1cb 42bd a2af 89bc 25e1 4a3d
00000050: 6eae 3b3d dfab 0a3d 9f39 a5bb 483d 66bd
00000060: 11aa bbbc 6ec5 34bd 548f 573d a739 cb3a
00000070: 86d6 433c e08f 1b3d 8fee 3bbc c8d2 6c3d
00000080: 71b5 d83c 1c15 14bd 5b2f b1bc ec9e f73c
00000090: 81ad eb3b 2f3c eebc 3d63 623d c16e 0d3d
000000a0: bbcb 2d3c 7a66 c03c 0b36 4fbd 9a85 373d
000000b0: d7cd 303d dd4a 57bc 4bad 643c e66a 40bd
000000c0: bf96 703c befc 66bd 138b 2dbd 38cb 4abd
000000d0: b00b 193d 93cc bc3c 5a83 853c 6bf2 8f3c
000000e0: 4d25 ccbb d05a db3b a734 bb3c 5c70 113d
000000f0: 313c c9bc b553 3bbd f67d eebc 2627 70bd
00000100: 2dc2 363b 2016 b2bb 6582 b9bc 7e32 b8bb
00000110: 58ef 04bc 668f 3b3d f5c0 633b 1a43 e5bb
00000120: 92a7 20bd aa26 5a3d b5e9 27bc 2494 9e3c
00000130: 2f12 2ebd 7ca5 64bd 9228 05bd 2a9e 91bc
00000140: 87a5 49bd 7345 853d 09f8 8e3c c258 a33c
00000150: 4fab 4bbd dcec 963c 2317 f23c 031c 43bc
00000160: a2fc 353d d3bc 573b 0aec f53c b91c 103d
00000170: fe1a bf3b f2e2 26bd 14b6 1ebd a87c 123c
00000180: 108e 513d fb91 223d 2330 30bd 770c 4cbd
00000190: 1e69 533d ae95 41bc 6255 5b3d af31 23bc
000001a0: 0d9b 2cbb 4098 753c f544 5f3d f9a7 ac3a
000001b0: 3a19 063c 5f15 313d 902e a43c 83f8 9abd
000001c0: feb5 2abc 0e29 073d fc09 4b3b aaf5 6ebd
000001d0: c177 54bc 5f10 e73b 1b67 713c 7d2d cebb
000001e0: 57a9 2a3a d915 693d 83c8 633c 4366 103d
000001f0: ac14 5ebd b8ce 54bd 8682 98bc 41cb 703d
00000200: 20d1 13bd ed0e ef39 f530 9d3d f90a 093d
00000210: 9254 84bc 0bd0 133c 0b2f 8ebb 2112 19bc
00000220: 40ac a2bd b408 8bbd 3e22 4cbd e992 c33c
00000230: 04f0 72bc 5825 62bd 8ff9 76bc 270e f0bc
00000240: eed6 563a 6bdd e0bb 51ec 853d f9ca 6ebc
00000250: 8860 623c ff05 0dbc 8fc5 97bc 47d6 d4bc
00000260: e604 2bbb f75c 623d 7ee5 67bb 9473 c1bc
00000270: 13dc 3d3d 5b7f 41bd 9df1 05bd 3249 04bc
00000280: 1238 fa3b e994 0bbd 4dff 323d 8968 83ba
00000290: b72c 093d be56 eebc 1d30 26bd 64bf 843d
000002a0: 29fe b93c 88d6 56bc f2cb 32bc 3ccb bf3c
000002b0: b2f9 abbc dc75 263c ee2e b23c 8335 8ebc
000002c0: 6302 f1bc b27a b43c a185 8cbc aee3 0e3d
000002d0: 011a 83ba 31be 063d e9ab 44bd 42c7 38bd
000002e0: 2acc 56bc 3cbc 8b3c 3865 53bc 9394 793b
000002f0: bbdd 583d 3b72 efbc ecb4 20bb 74d0 c73b
00000300: ad06 42bc ab3d 7f3d ed5c 823c 11fa b83c
00000310: 0e00 093c b93f 8a3d 65a5 cbbc feb7 2d3b
00000320: 7cc0 093d bf81 fe3c 1822 433c 4a47 85bc
00000330: 64ce 093d 4618 ef3c 20c9 543c f3cf ffbc
00000340: 1d12 49bd ce32 04bd b31b 30bb ca75 bb3c
00000350: 3a7a 893c 5246 3c3d ef2a 2d3d 800d 47bd
00000360: 3dfa 08bd 6f63 ae3c 87c2 3fbd d3b9 1dbd
00000370: c369 553c 16fa d83c ad47 85ba 0696 a5bb
00000380: 5c10 f73c eadb 843c 5429 01bd 3878 23bd
00000390: 0e59 0a3c 470f 173d 8fe4 27bd 1325 42bd
000003a0: f360 05bd 0a9d 5bbd d3a6 00bd dce7 793d
000003b0: e378 0d3d 983f d73c fe56 79bc 6af7 de3c
000003c0: c66f 5c3d 1e7e 4fbd cb77 803c 2d5c f4bb
000003d0: 3e19 273d 8081 45bc 00af 13bc 89e5 94bc
000003e0: 5568 823c 6053 423c 9e94 2cbd 0530 0b3c
000003f0: 7b3b 553c 6161 c13c 5a62 903d c9c0 833d

res3.conv20.bias f4 [32]
-0.03334851 0.0055358997 0.02036535 0.036100447 -0.031881094 -0.05105593 -0.026466943 0.03535974
0.0016278754 0.036490884 0.006990117 0.008211543 0.011635537 -0.00211968 0.052835133 0.04776253
0.04188731 -0.0054221866 -0.0014475592 -0.034110658 0.043751948 0.015444868 -0.025822796 0.021842305
0.004801335 0.020233624 -0.026328467 0.0039373348 -0.021695802 -0.039010976 -0.0010222448 -0.0103241755
00000000: 7298 08bd 7e66 b53b 3cd5 a63c 10de 133d
00000010: c095 02bd 0620 51bd 34d1 d8bc 60d5 103d
00000020: 6f5e d53a 7777 153d 5a0d e53b b589 063c
00000030: fba2 3e3c 54ea 0abb a769 583d a5a2 433d
00000040: 0792 2b3d 99ac b1bb 07bc bdba 9eb7 0bbd
00000050: 3e35 333d 790c 7d3c 548a d3bc a2ee b23c
00000060: 8454 9d3b fcc0 a53c ccae d7bc c204 813b
00000070: 65bb b1bc f9c9 1fbd d8fc 85ba bb26 29bc

res3.conv21.weight f4 [32, 32, 3, 3]
-0.030321138 0.0074529727 0.025185164 0.03868268 -0.06303886 0.025143147 0.011135094 0.031989828
0.023487251 -0.016671631 0.017579205 -0.0076882048 0.0363869 -0.052931685 0.038631737 -0.03917893
-0.009105709 0.0033807433 0.017502494 -0.07318188 0.027065758 -0.033547405 -0.016124548 -0.05058181
-0.016053569 0.022953095 0.057399478 -0.04196376 0.044564974 -0.053531762 0.05819842 -0.030301392
-0.05384168 0.013632907 -0.040038753 -0.019477813 0.03555502 0.053949587 0.008409512 -0.027463669
0.013538262 -0.0547106 0.026753727 -0.017360758 -0.005535332 0.0042861714 -0.0064805904 0.05324748
0.029968917 0.0126693 0.035912976 0.060056962 -0.02862043 -0.0658709 -0.043262195 -0.030097611
0.029783117 0.012811863 -0.0029387276 -0.00062868994 0.0035093697 0.061093487 -0.050385512 0.0042043766
-0.015081823 -0.024937978 0.027726501 -0.031854745 0.0383896 0.01812545 0.05242283 0.06406094
0.049223512 0.03404696 -0.037199322 -0.009212058 0.03509972 -0.036511097 -0.0009642964 0.040038507
0.054648127 0.045077804 0.00013799655 0.033361677 0.026609348 -0.013067701 0.03187015 0.048018567
-0.036237042 0.05175151 -0.03787532 -0.010383906 -0.03383122 0.0588113 0.01870142 -0.05012137
-0.027631162 0.0061787264 0.047729347 -0.028471833 -0.001442636 0.0274842 -0.045423813 -0.032314472
0.07299114 0.019376824 -0.085375056 0.03487131 0.055622146 -0.03986939 -0.012688864 0.029043427
0.010903267 -0.003945197 0.049827263 0.022360943 -0.042250533 -0.0633592 -0.052685134 -0.038250193
0.010239722 0.005647858 -0.039962925 0.029772123 -0.061761193 -0.05334637 0.00878725 -0.045809235
-0.027184712 0.036751162 0.027371297 0.035172448 -0.04773948 -0.04963483 0.019783936 0.024201786
0.018752294 -0.024175072 0.025130156 0.043807093 -0.021586617 -0.019951362 0.0029752718 0.055431914
-0.010624358 -0.0398318 0.025113277 -0.0313009 0.012601449 0.026827961 -0.012252278 0.0052781906
0.030197075 -0.0038689726 0.01270271 -0.016210107 -0.009707261 0.04053119 0.007195073 0.006261894
-0.053552486 -0.0055315085 0.004796681 0.041509826 0.03285175 0.040741943 0.025233293 -0.027970523
0.029131211 0.046037186 -0.020094043 0.03436275 -0.021775847 0.053911973 -0.002043032 -0.022810053
0.0486508 -0.036234293 -0.012118994 -0.014150284 -0.06590724 0.005118604 -0.053747416 0.012533369
0.017292328 -0.05435288 0.0046487767 -0.03407898 0.05605885 0.05094564 -0.051498506 -0.052033488
-0.03736884 0.013851574 -0.037980787 0.012663631 -0.044434007 0.03122184 0.051230885 -0.07722087
0.0017549277 0.07444188 -0.0043362156 -0.055075295 0.061250858 0.043987382 -0.018687367 0.052809883
0.035942614 -0.022246435 0.03350398 0.0018633967 0.042634357 0.03530296 0.023439549 0.051349647
-0.0134767275 0.013236146 0.023285259 -0.004473377 -0.033554804 -0.020716546 -0.028214527 -0.058661986
0.04000712 -0.014105539 0.063153036 0.023970075 0.032075 0.08203823 -0.045167748 -0.05786703
-0.044210743 0.027755134 -0.004840318 -0.050136503 0.04417914 -0.028482273 -0.029471708 -0.055014495
0.008016802 -0.030699642 -0.025971523 0.016404677 0.04168216 -0.030817442 -0.012883927 -0.033447415
0.019611083 -0.049783755 0.042626906 -0.040780965 -0.019682622 -0.0047917226 0.04619291 0.00710246
00000000: 0964 f8bc 1138 f43b 1e51 ce3c bb71 1e3d
00000010: 851a 81bd 00f9 cd3c f86f 363c c407 033d
00000020: 5668 c03c f292 88bc 4402 903c 56ed fbbb
00000030: 6e0a 153d e5ce 58bd 503c 1e3d 167a 20bd
00000040: 1d30 15bc 768f 5d3b 6461 8f3c 62e0 95bd
00000050: 02b9 dd3c 0169 09bd a117 84bc df2e 4fbd
00000060: c682 83bc 2108 bc3c b71b 6b3d 31e2 2bbd
00000070: c389 363d 1f44 5bbd 7761 6e3d a03a f8bc
00000080: 1889 5cbd 8e5c 5f3c adff 23bd ef8f 9fbc
00000090: 24a2 113d 3efa 5c3d 0dc8 093c 7dfb e0bc
000000a0: 96cf 5d3c 3918 60bd a22a db3c 2638 8ebc
000000b0: bb61 b5bb 0373 8c3b 225b d4bb 081a 5a3d
000000c0: 6081 f53c e592 4f3c 7c19 133d 4afe 753d
000000d0: 6475 eabc 53e7 86bd b333 31bd 448f f6bc
000000e0: b9fb f33c d9e8 513c ab97 40bb abce 24ba
000000f0: 74fd 653b 2a3d 7a3d 0a61 4ebd dec4 893b
00000100: c019 77bc bb4a ccbc b022 e33c 1f7a 02bd
00000110: 6a3e 1d3d d37b 943c 52b9 563d 6232 833d
00000120: 989e 493d d374 0b3d 515e 18bd 2cee 16bc
00000130: b9c4 0f3d a98c 15bd d6c8 7cba 6bff 233d
00000140: b7d6 5f3d 81a3 383d 2bb3 1039 41a6 083d
00000150: d9fb d93c e919 56bc 468a 023d 1eaf 443d
00000160: 4b6d 14bd 64f9 533d 2723 1bbd 4221 2abc
00000170: 9b92 0abd 1ee4 703d b833 993c 114c 4dbd
00000180: bf5a e2bc ea76 ca3b d97f 433d c33d e9bc
00000190: d516 bdba 8c26 e13c 520e 3abd 2e5c 04bd
000001a0: 617c 953d 25bc 9e3c 1ed9 aebd 38d5 0e3d
000001b0: 0cd4 633d 164e 23bd f4e4 4fbc 7bec ed3c
000001c0: 9ea3 323c b646 81bb ac17 4c3d 4c2e b73c
000001d0: e50e 2dbd 78c2 81bd 5ecc 57bd 3cac 1cbd
000001e0: 82c4 273c ab11 b93b 2ab0 23bd abe4 f33c
000001f0: 4ef9 7cbd b981 5abd 66f8 0f3c 77a2 3bbd
00000200: 79b2 debc 6388 163d c539 e03c fc10 103d
00000210: 798a 43bd e44d 4bbd ec11 a23c d342 c63c
00000220: 699e 993c cd0a c6bc c2dd cd3c 116f 333d
00000230: 6bd6 b0bc 0a71 a3bc c7fc 423b 930c 633d
00000240: ca11 2ebc ab26 23bd 5cba cd3c 5f35 00bd
00000250: 4f76 4e3c 50c6 db3c c7bd 48bc acf4 ac3b
00000260: db5f f73c 978e 7dbb 071f 503c 0fcb 84bc
00000270: 340b 1fbc 0804 263d a6c4 eb3b 9330 cd3b
00000280: da59 5bbd a841 b5bb 7a2d 9d3b 3506 2a3d
00000290: 8e8f 063d 06e1 263d 0db6 ce3c 7022 e5bc
000002a0: 94a4 ee3c 7d91 3c3d 439c a4bc f4bf 0c3d
000002b0: 4363 b2bc cdd2 5c3d 64e4 05bb 26dc babc
000002c0: 1046 473d 696a 14bd bf8e 46bc 98d6 67bc
000002d0: 60fa 86bd f6b9 a73b 4026 5cbd c258 4d3c
000002e0: a4a8 8d3c 20a1 5ebd c454 983b 6796 0bbd
000002f0: f79d 653d 60ac 503d 19f0 52bd 1121 55bd
00000300: 1210 19bd b6f1 623c be91 1bbd 1e7b 4f3c
00000310: 6f00 36bd f2c4 ff3c 7ad7 513d fa25 9ebd
00000320: 9a05 e63a fc74 983d d016 8ebb a296 61bd
00000330: 2ee2 7a3d 1d2c 343d 4016 99bc 2d4f 583d
00000340: 9038 133d 283e b6bc 783b 093d 383d f43a
00000350: 5da1 2e3d d699 103d 4c04 c03c 0254 523d
00000360: 7ecd 5cbc 6cdc 583c bac0 be3c 6895 92bb
00000370: c370 09bd bfb5 a9bc 2722 e7bc 8d47 70bd
00000380: 82de 233d eb1a 67bc 6156 813d e45c c43c
00000390: 1361 033d a903 a83d d101 39bd fb05 6dbd
000003a0: 5316 35bd bc5e e33c 889b 9ebb ef5b 4dbd
000003b0: 30f5 343d a853 e9bc a76e f1bc e156 61bd
000003c0: e858 033c d17d fbbc 3bc2 d4bc 1a63 863c
000003d0: eaba 2a3d dc74 fcbc 1b17 53bc 2800 09bd
000003e0: 6ca7 a03c 0dea 4bbd 8d99 2e3d f109 27bd
000003f0: 733d a1bc e203 9dbb c734 3d3d c1bb e83b

res3.conv21.bias f4 [32]
-0.060643252 -0.021928294 -0.00029659632 -0.033542152 0.04936875 -0.01495495 -0.036549572 0.026827868
-0.019502638 0.019588044 0.05474517 -0.01917694 0.044961713 0.009089757 -0.044672847 -0.05882938
0.033582818 0.011450194 0.017661698 -0.030891629 0.0054117218 0.043188594 0.018122477 0.05203302
0.050137274 0.04461697 0.015746836 0.011864086 -0.020561727 -0.049908146 0.01744504 0.032741025
00000000: 0f65 78bd f7a2 b3bc 7c80 9bb9 7f63 09bd
00000010: e336 4a3d 9b05 75bc 01b5 15bd 1ec6 db3c
00000020: ffc3 9fbc 1b77 a03c 793c 603d f518 9dbc
00000030: c629 383d 34ed 143c e0fa 36bd 13f7 70bd
00000040: 238e 093d 9899 3b3c 44af 903c 7110 fdbc
00000050: d054 b13b 86e6 303d 9775 943c 9320 553d
00000060: be5c 4d3d 49c0 363d 82ff 803c 9561 423c
00000070: 1171 a8bc 7c6c 4cbd e7e8 8e3c 741b 063d
