PanSharpening/hbqnqyh9/checkpoints/epoch=9-step=5360.ckpt (torch, 944867 bytes, 76 tensors)

conv1.weight f4 [32, 4, 3, 3]
-0.15497991 -0.15412453 0.05349504 -0.19131523 -0.18941239 -0.056922935 -0.019835066 -0.04479538
-0.15227729 0.12565874 0.045409303 0.0893588 0.14047645 -0.016248407 0.16175246 0.030000834
0.18474607 0.055526935 0.02623801 0.014926121 -0.12952043 -0.11987792 0.13154094 0.13546559
0.07170863 -0.08277693 0.08509591 -0.080283165 -0.043255776 -0.15805604 -0.25175497 -0.08145744
-0.02785039 0.042490754 0.070028186 -0.10806976 0.13029085 0.22238106 -0.055324018 0.035615567
0.07338612 -0.009409599 -0.09031316 -0.13121252 -0.12638213 0.106608175 -0.15668586 0.12233334
-0.024450518 0.026092332 -0.12480437 0.14868017 -0.18410885 -0.13166277 0.1279631 0.006451537
-0.08774557 -0.035903648 0.118814126 -0.0918107 -0.08215401 0.088732995 -0.014469539 -0.09905557
0.1258193 -0.11125162 0.07068748 0.1298121 0.14111377 -0.04214755 0.051233537 0.17338604
-0.0063517946 -0.04096949 0.072589315 0.04494955 -0.054861244 0.105172984 0.10445112 -0.10112666
-0.027061054 0.0650866 0.14825676 -0.19271798 -0.019472962 -0.1733738 -0.18049406 0.121465676
-0.1297091 -0.09893445 0.17026943 0.111560784 0.018935094 -0.012631495 -0.07966395 0.16980772
-0.06123277 0.13982669 -0.027324205 -0.027493307 0.036426567 0.054958496 -0.05904 -0.13974722
0.1502784 -0.073263206 0.021548036 0.19335598 0.13638651 0.122907795 -0.0018366615 0.0048263073
-0.0044845697 0.022880135 0.092366986 -0.11937824 -0.11282265 -0.040089346 0.14995213 -0.045419626
-0.030288778 -0.049756363 -0.074749134 0.0815451 0.20992039 0.09196748 0.15509641 0.030909304
0.013414914 -0.09999951 0.13524011 -0.15405627 -0.047932778 0.11579909 0.18145536 0.041832276
0.12279378 0.14464703 0.06960613 0.11770504 -0.08513752 0.047062695 0.07589309 -0.13973664
0.012884714 -0.016698206 0.17424957 0.06881056 -0.092025034 0.18494104 0.1575829 0.21762945
0.10497619 -0.14624651 -0.097509764 0.044023883 -0.11582753 -0.17194243 -0.02089554 0.010649294
-0.16704841 -0.09339265 0.1389719 -0.027367294 0.019142378 0.08741079 0.060494322 0.12487889
-0.13678403 -0.15340677 0.010047232 0.068495356 -0.105480894 -0.13151807 0.1905927 0.09709866
-0.05906175 0.19330582 0.15869631 0.088601865 0.14765164 0.059406523 -0.038590666 0.1602487
0.22499184 -0.028732676 -0.022510013 0.16523935 0.06856024 0.003090289 -0.24293275 -0.07555045
-0.22115253 -0.12492198 -0.23768172 0.009551585 0.029335948 -0.066402614 -0.13573232 -0.01841167
-0.019775392 -0.055711575 0.14634268 0.011006813 0.070043005 0.08833602 0.15879497 -0.10719958
-0.009273767 0.09501842 0.018967725 -0.025512611 -0.10290407 -0.10355161 -0.21576512 -0.1126533
-0.08558001 0.03619687 -0.04986023 0.09347906 -0.051767964 -0.10799502 -0.0038687359 -0.15787835
-0.0098363785 0.09005018 -0.11479566 0.007745721 -0.015274063 -0.14978093 0.02563573 -0.10660598
-0.20676862 -0.019678172 0.17506988 0.04983754 0.10524084 0.11154669 -0.056492265 -0.09872753
-0.09762623 0.05082267 -0.114261776 -0.07043157 -0.012046938 0.08828239 0.0069364845 -0.049307372
0.15403618 -0.117322795 -0.10183597 0.054211088 -0.11465192 0.15981108 0.09372578 -0.087985076
00000000: 0eb3 1ebe d2d2 1dbe 9d1d 5b3d 24e8 43be
00000010: 52f5 41be 0628 69bd 267d a2bc 5c7b 37bd
00000020: 94ee 1bbe afac 003e 1bff 393d bf01 b73d
00000030: 0fd9 0f3e 611b 85bc 70a2 253e 4fc4 f53c
00000040: 132e 3d3e 3670 633d 18f1 d63c b08c 743c
00000050: 01a1 04be 8e82 f5bd abb2 063e 7eb7 0a3e
00000060: f9db 923d f386 a9bd c446 ae3d 806b a4bd
00000070: f82c 31bd 71d9 21be 07e6 80be 29d3 a6bd
00000080: 8026 e4bc c90a 2e3d f06a 8f3d ae53 ddbd
00000090: f76a 053e dcb7 633e 709b 62bd a1e1 113d
000000a0: 764b 963d b82a 1abc 1bf6 b8bd 935c 06be
000000b0: 516a 01be 6355 da3d 4272 20be e789 fa3d
000000c0: 744c c8bc 96bf d53c 6f99 ffbd 9d3f 183e
000000d0: 0887 3cbe 9bd2 06be c208 033e 6a67 d33b
000000e0: f3b3 b3bd b40f 13bd d254 f33d 4007 bcbd
000000f0: 5d40 a8bd a5b9 b53d a511 6dbc a6dd cabd
00000100: c6d6 003e e4d7 e3bd 99c4 903d 77ed 043e
00000110: 2180 103e e9a2 2cbd 42da 513d 1c8c 313e
00000120: b722 d0bb a0cf 27bd b5a9 943d 051d 383d
00000130: 2fb6 60bd ef64 d73d 78ea d53d 7f1b cfbd
00000140: 25af ddbc 204c 853d 9fd0 173e dd57 45be
00000150: c385 9fbc e788 31be 6fd3 38be ffc2 f83d
00000160: 76d2 04be 259e cabd 1c5b 2e3e fb79 e43d
00000170: c51d 9b3c 54f4 4ebc da26 a3bd 13e2 2d3e
00000180: 37cf 7abd ba2e 0f3e 03d7 dfbc a539 e1bc
00000190: 0634 153d 291c 613d edd3 71bd e519 0fbe
000001a0: 95e2 193e 050b 96bd 8285 b03c 1cff 453e
000001b0: e8a8 0b3e 15b7 fb3d 22bc f0ba 0026 9e3b
000001c0: 4cf3 92bb 1f6f bb3c e72a bd3d 947c f4bd
000001d0: 900f e7bd ba34 24bd 0d8d 193e ee09 3abd
000001e0: 2c20 f8bc 54cd 4bbd 1316 99bd 1e01 a73d
000001f0: 5ff5 563e 7259 bc3d 98d1 1e3e 8235 fd3c
00000200: 3aca 5b3c 8bcc ccbd 627c 0a3e edc0 1dbe
00000210: 2955 44bd 1328 ed3d 6fcf 393e 5258 2b3d
00000220: 4e7b fb3d 5a1e 143e a98d 8e3d 570f f13d
00000230: 955c aebd d0c4 403d d66d 9b3d 1f17 0fbe
00000240: 681a 533c adca 88bc 7b6e 323e 8dec 8c3d
00000250: 9f77 bcbd 2f61 3d3e 695d 213e 41da 5e3e
00000260: c2fd d63d a5c1 15be 33b3 c7bd 6352 343d
00000270: fc36 edbd ad11 30be 202d abbc 607a 2e3c
00000280: bd0e 2bbe a544 bfbd a64e 0e3e 6031 e0bc
00000290: 7ad0 9c3c 6e04 b33d e5c8 773d 81c0 ff3d
000002a0: 1d11 0cbe aa16 1dbe 259d 243c 4b47 8c3d
000002b0: 5e06 d8bd acac 06be bc2a 433e aadb c63d
000002c0: bcea 71bd f6f1 453e 4981 223e e574 b53d
000002d0: fe31 173e 4154 733d 3f11 1ebd 3c18 243e
000002e0: 4364 663e ca60 ebbc eb66 b8bc 8134 293e
000002f0: 5069 8c3d 7286 4a3b 5dc3 78be 32ba 9abd
00000300: cf75 62be 18d7 ffbd d662 73be 407e 1c3c
00000310: f151 f03c 18fe 87bd 6afd 0abe 12d4 96bc
00000320: 0100 a2bc d231 64bd dbda 153e eb55 343c
00000330: b572 8f3d 84e9 b43d 269b 223e 748b dbbd
00000340: fff0 17bc 0499 c23d 3462 9b3c d3ff d0bc
00000350: 5ebf d2bd de12 d4bd 88f1 5cbe c6b6 e6bd
00000360: 9344 afbd 2b43 143d 3e3a 4cbd f371 bf3d
00000370: a50a 54bd 7e2c ddbd 9e8a 7dbb ddaa 21be
00000380: c328 21bc 3b6c b83d fd19 ebbd d1cf fd3b
00000390: 1040 7abc 2c60 19be 0602 d23c 3c54 dabd
000003a0: 27bb 53be 1e34 a1bc 8545 333e 7322 4c3d
000003b0: 8288 d73d 9772 e43d 6f64 67bd a931 cabd
000003c0: 43f0 c7bd 6f2b 503d 1402 eabd 6d3e 90bd
000003d0: 8560 45bc 66cd b43d 734b e33b 87f6 49bd
000003e0: a9bb 1d3e ef46 f0bd 618f d0bd 720c 5e3d
000003f0: a0ce eabd 84a5 233e 4df3 bf3d 8531 b4bd

conv1.bias f4 [32]
0.014761411 0.04654411 0.04868677 -0.09451386 -0.00092789537 -0.0048604063 -0.044194847 0.11065816
-0.04670327 -0.115572475 0.04787118 -0.08421179 0.10785846 -0.023828711 0.08218276 0.03851274
0.10359054 -0.012682232 -0.08255841 0.042940114 0.1298039 0.092755154 0.13749756 0.08882448
0.013649553 -0.03323473 -0.059232652 0.10491329 0.00065170944 0.015114246 0.053513754 -0.039427772
00000000: d8d9 713c 09a5 3e3d c76b 473d 7c90 c1bd
00000010: 013e 73ba 0b44 9fbb a805 35bd bfa0 e23d
00000020: ee4b 3fbd 43b1 ecbd 9214 443d 3b77 acbd
00000030: e5e4 dc3d 6e34 c3bc 6f4f a83d 89bf 1d3d
00000040: 4727 d43d 23c9 4fbc 6214 a9bd f9e1 2f3d
00000050: 50eb 043e 6af6 bd3d 29cc 0c3e 9ce9 b53d
00000060: 60a2 5f3c 2421 08bd f09d 72bd c7dc d63d
00000070: 7bd7 2a3a bea1 773c 3d31 5b3d 047f 21bd

res1.conv20.weight f4 [32, 32, 3, 3]
-0.16747528 -0.084520034 -0.028441472 -0.06928403 -0.06444013 0.0085368985 -0.07729043 0.03907221
0.1288349 0.03923493 -0.009856827 0.033297777 0.046222895 0.039943554 0.0017583334 0.033977095
0.025906455 -0.06821675 -0.021377465 0.046827648 0.0502074 -0.061107986 -0.020422706 0.0017736977
-0.06331126 -0.01900489 0.07411432 0.024537232 -0.011129766 0.074782796 0.10201363 -0.023977065
-0.04207444 0.046397004 -0.07244169 0.06731958 -0.0037793668 0.056521732 -0.030435318 -0.04927792
0.002738824 -0.02864304 -0.081520915 -0.0036383038 0.046595205 -0.08769335 -0.041662876 -0.05229067
-0.06112717 0.023927733 -0.011618964 -0.04386591 0.0056865127 -0.06633341 -0.0028647662 0.04864442
-0.065006465 -0.08550608 -0.06210755 -0.06804185 -0.27203327 -0.072108366 -0.0843497 -0.03078298
-0.03377642 -0.047785267 -0.011416259 -0.0104502635 -0.06536334 0.022685124 -0.050094467 0.028362717
0.021164104 0.037495125 0.15686208 0.08421648 0.03676274 0.10233603 0.04280274 0.03296856
0.12076042 0.028530944 -0.13900816 -0.116221145 -0.0060498645 -0.111784816 0.018192582 -0.02790098
-0.05860406 0.010997869 -0.01343504 0.04297001 0.022102762 -0.0062364717 0.07728721 0.0975715
-0.060178142 0.055766106 0.0030739494 -0.032705884 -0.0045338557 -0.15366368 -0.049906317 -0.057626035
-0.07491776 -0.025528824 -0.119731754 -0.13332395 -0.027011495 -0.0020551663 -0.019129569 -0.03099828
-0.008392397 0.039336655 0.060874365 -0.014341321 0.07753313 -0.0564963 -0.0041701137 -0.028481394
0.04548023 0.008566628 -0.047714718 0.018600238 -0.095033035 -0.03635688 0.037511177 -0.04289693
-0.016192773 -0.046047665 0.0038699382 -0.0324618 -0.019105725 0.0015501156 -0.062313482 0.01792816
0.011168815 0.06512257 -0.0074913595 -0.036463387 0.06867854 -0.05113325 -0.08934069 0.06299784
0.030411748 0.014331862 -0.00070297637 -0.05707911 -0.0041243276 -0.046566736 0.0065359874 0.041381687
-0.04551446 -0.0662625 -0.017615728 0.14204447 -0.106499925 0.0035544564 0.12879387 -0.20876004
0.0032983301 0.092774525 -0.13827457 0.0022840719 -0.0441996 -0.11805641 -0.061715245 0.046644658
-0.18161662 -0.053106073 0.19947848 -0.011708748 0.04581662 -0.05031983 -0.096002065 -0.05820134
-0.049240652 -0.020517109 -0.04012372 -0.050204188 -0.015138598 0.02825084 0.042318817 0.016696164
-0.012275092 0.050915264 -0.011912932 0.02244738 0.046104904 -0.03017246 -0.041880872 -0.05844279
0.058717623 0.07305048 0.019732798 0.065680236 0.10511711 -0.03094691 0.03380085 -0.026816608
0.0016372626 -0.07270341 -0.027474908 0.046899013 -0.031643588 0.022026325 0.014826851 0.022104738
0.018297156 0.09157465 0.055694234 -0.014770946 0.06918761 0.0003108575 0.05829745 -0.0052492805
0.009887507 -0.008012627 -0.013223191 0.016931307 -0.009542811 0.09680683 0.030198278 0.040863257
0.09828507 0.0028830855 0.043809406 -0.042823117 0.021726403 0.06559222 0.07557515 0.17945848
0.13949181 0.14856626 -0.013701268 -0.05265323 0.06668134 0.055365548 -0.0024117539 0.040256128
-0.04299877 0.03834451 0.082710385 0.01588553 0.0016633624 0.007624805 -0.02171208 -0.052118357
0.03799092 -0.040112436 -0.010718195 0.027949352 0.01407582 0.06921964 0.052374933 -0.05352688
00000000: a47e 2bbe d718 adbd 17fe e8bc c9e4 8dbd
00000010: 30f9 83bd 59de 0b3c 724a 9ebd 2f0a 203d
00000020: 4ced 033e ceb4 203d 877e 21bc 4063 083d
00000030: 3854 3d3d da9b 233d e177 e63a 912b 0b3d
00000040: c639 d43c 39b5 8bbd cb1f afbc 59ce 3f3d
00000050: 46a6 4d3d 5e4c 7abd 854d a7bc 6b7b e83a
00000060: 55a9 81bd 25b0 9bbc 40c9 973d 4e02 c93c
00000070: 9f59 36bc b927 993d 86ec d03d 8d6b c4bc
00000080: 3f56 2cbd c90a 3e3d 4f5c 94bd d9de 893d
00000090: 41af 77bb 5583 673d 7d53 f9bc a5d7 49bd
000000a0: d87d 333b cfa4 eabc 70f4 a6bd 9c70 6ebb
000000b0: 9dda 3e3d 9298 b3bd b1a6 2abd be2e 56bd
000000c0: 7c60 7abd 1804 c43c 785d 3ebc beac 33bd
000000d0: ed55 ba3b d0d9 87bd cdbe 3bbb 5f3f 473d
000000e0: 1c22 85bd d01d afbd 7d64 7ebd 8759 8bbd
000000f0: f247 8bbe 8dad 93bd 89bf acbd 972c fcbc
00000100: 2559 0abd 7cba 43bd 430b 3bbc 9537 2bbc
00000110: 37dd 85bd 27d6 b93c db2f 4dbd ee58 e83c
00000120: 5860 ad3c 7d94 193d 74a0 203e b179 ac3d
00000130: 8794 163d 8d95 d13d ed51 2f3d 0a0a 073d
00000140: 3d51 f73d bab9 e93c 2858 0ebe 5a05 eebd
00000150: f13d c6bb 70ef e4bd 9c08 953c 9990 e4bc
00000160: d00a 70bd 6830 343c a41e 5cbc 5201 303d
00000170: da10 b53c 515b ccbb c248 9e3d 91d3 c73d
00000180: 5b7d 76bd 006b 643d 5074 493b 9bf6 05bd
00000190: bd90 94bb 035a 1dbe 916a 4cbd 4709 6cbd
000001a0: 7c6e 99bd d321 d1bc ec35 f5bd 1386 08be
000001b0: 3647 ddbc f8af 06bb 9db5 9cbc 1bf0 fdbc
000001c0: 4480 09bc 791f 213d 6657 793d dcf7 6abc
000001d0: b1c9 9e3d aa68 67bd 73a5 88bb d051 e9bc
000001e0: 7a49 3a3d 0b5b 0c3c 8270 43bd 875f 983c
000001f0: aea0 c2bd f4ea 14bd 52a5 193d b1b4 2fbd
00000200: b5a6 84bc 7a9c 3cbd ca9e 7d3b aaf6 04bd
00000210: 9c83 9cbc 402d cb3a 6c3c 7fbd 14de 923c
00000220: 68fd 363c fb5e 853d 147a f5bb a25a 15bd
00000230: 56a7 8c3d 1971 51bd 40f8 b6bd 0305 813d
00000240: 0f22 f93c 30d0 6a3c f247 38ba c9cb 69bd
00000250: 5e25 87bb c3bc 3ebd d62b d63b d87f 293d
00000260: 5f6d 3abd a2b4 87bd dc4e 90bc 1b74 113e
00000270: a21c dabd e2f1 683b 8ae2 033e 31c5 55be
00000280: cc28 583b 9200 be3d d997 0dbe 5eb0 153b
00000290: a40a 35bd 8fc7 f1bd 20c9 7cbd 780e 3f3d
000002a0: b5f9 39be c185 59bd 1644 4c3e 0cd6 3fbc
000002b0: 35aa 3b3d 2b1c 4ebd bb9c c4bd 8764 6ebd
000002c0: 91b0 49bd 7f13 a8bc c558 24bd e8a2 4dbd
000002d0: e207 78bc 4e6e e73c 7f56 2d3d 65c6 883c
000002e0: 781d 49bc 868c 503d 752e 43bc 91e3 b73c
000002f0: 7fd8 3c3d 3c2c f7bc 478b 2bbd b561 6fbd
00000300: e481 703d 7d9b 953d ada6 a13c 5c83 863d
00000310: a447 d73d 6084 fdbc c372 0a3d 81ae dbbc
00000320: 6b99 d63a 87e5 94bd 0f13 e1bc 2e19 403d
00000330: b59c 01bd 8d70 b43c 52ec 723c ff14 b53c
00000340: ebe3 953c 7d8b bb3d a31f 643d d701 72bc
00000350: 3cb2 8d3d 96fa a239 4fc9 6e3d 2802 acbb
00000360: 36ff 213c 6547 03bc 15a6 58bc 86b3 8a3c
00000370: 7359 1cbc a942 c63d 6162 f73c 3b60 273d
00000380: af49 c93d 26f2 3c3b 7e71 333d 4b67 2fbd
00000390: 92fb b13c 3755 863d 25c7 9a3d f7c3 373e
000003a0: f1d6 0e3e c121 183e 487b 60bc eaaa 57bd
000003b0: 3a90 883d fcc6 623d 840e 1ebb 9ce3 243d
000003c0: 7a1f 30bd 220f 1d3d 1064 a93d 5f22 823c
000003d0: 2e05 da3a 80d9 f93b 88dd b1bc 0f7a 55bd
000003e0: 5e9c 1b3d f04c 24bd 5e9b 2fbc 0af6 e43c
000003f0: 459e 663c 07c3 8d3d 1987 563d 003f 5bbd

res1.conv20.bias f4 [32]
-0.02027851 -0.015616472 0.058347806 -0.016916228 0.0018226764 0.035154782 -0.047607653 0.051185753
0.028619213 0.052942645 -0.019876461 0.04266869 0.04339179 0.027318306 -0.010426168 0.031645168
0.010143143 -0.020969626 -0.047002237 0.004355174 -0.038311187 -0.020927105 0.03674849 0.04127024
0.014928792 0.041233853 0.01426539 0.051089387 0.0014769965 -0.02766546 0.038761675 -0.007113261
00000000: 1e1f a6bc 3bdc 7fbc 1cfe 6e3d e793 8abc
00000010: dfe6 ee3a 76fe 0f3d 3e00 43bd 27a8 513d
00000020: d772 ea3c 63da 583d f6d3 a2bc 5dc5 2e3d
00000030: 97bb 313d a4ca df3c 85d2 2abc 5d9e 013d
00000040: 6d2f 263c 7ec8 abbc 6b85 40bd d9b5 8e3b
00000050: 31ec 1cbd 526f abbc 9685 163d fc0a 293d
00000060: e497 743c d4e4 283d 62b9 693c 1b43 513d
00000070: c797 c13a ada2 e2bc 90c4 1e3d 5c16 e9bb

res1.conv21.weight f4 [32, 32, 3, 3]
0.19843657 0.17987663 0.08154226 0.18405055 0.07344252 0.09254765 0.07358362 0.044134244
0.019592987 -0.0144554395 -0.010624591 0.022808138 -0.0050348127 -0.029438727 0.0008735305 -0.043364596
0.04387528 -0.012811913 0.053033937 -0.047561742 -0.027294878 -0.031898446 0.010008983 -0.025252398
-0.03817786 0.015589953 -0.036654867 0.05210526 -0.06113566 -0.03657663 -0.019943789 -0.064545065
0.006007927 -0.046685908 -0.005401271 0.062340666 -0.020862103 0.00039101182 -0.032963946 0.0011786594
-0.005105239 0.0015105339 -0.021251857 -0.0001771964 0.028232329 0.025586752 0.03227987 0.020192519
-0.046672493 0.03968808 -0.00095663476 -0.025728209 0.046488795 -0.04846303 -0.024622343 -0.031812344
0.016499978 -0.02143665 -0.0744058 0.039140716 -0.04553965 -0.0027154642 -0.014662727 0.022604225
-0.02925234 0.055119988 -0.03850188 0.014098033 0.03673561 0.05656751 0.07023909 0.08774656
-0.04945403 0.04620369 0.00444729 -0.05916931 0.023025116 -0.028012551 -0.101944886 -0.039643627
0.0057567107 0.030717894 -0.027780658 0.037849844 -0.061060183 0.02617261 -0.024731431 -0.034662295
0.038856674 0.009965747 0.052824926 -0.0070690173 -0.008780264 -0.028497763 0.024877433 -0.022542804
-0.015882002 0.013512467 0.05453943 -0.13576718 -0.13165988 -0.09281626 -0.018580582 0.04767716
-0.038000174 0.15053235 0.118144296 0.076721475 0.06283946 -0.054652322 0.040982418 0.0010916479
0.037785444 0.016318815 0.016837833 0.03604092 0.025612319 0.011304808 -0.0007627345 0.021877954
-0.02578184 -0.024149233 0.026641348 -0.040730596 0.030694338 0.0099314265 -0.029908953 0.056520868
0.04394027 0.020668019 -0.0025619098 0.06067866 0.047085393 0.048020188 0.011268773 0.025745157
-0.026443046 -0.052445374 0.031790994 0.011265978 -0.07597066 0.068119794 0.056316406 0.050985206
-0.008571452 -0.01131261 -0.029847069 0.023922583 0.035899017 -0.04856574 0.03471234 0.07226543
-0.060163315 0.007453811 0.04140149 0.033754036 -0.008745878 0.057039484 -0.005076602 -0.004280105
0.027814332 0.009153986 -0.05456542 -0.0856313 0.02943425 -0.07302642 -0.07418607 -0.05503898
-0.0154904155 -0.0298446 -0.06672992 -0.03706694 0.044251706 0.030030113 0.007416719 -0.03631518
0.028386993 0.02934021 0.0252307 0.002672176 0.03643233 0.042887684 -0.035458744 0.028989695
-0.02437172 0.05408035 0.038812358 -0.014564754 -0.03146512 0.0035169963 -0.043706816 0.030747922
-0.018970808 0.021930195 0.0076943496 -0.023532905 0.036411826 0.016062755 -0.03194573 0.021484094
-0.006879487 0.016473131 -0.05595747 -0.02054482 0.039473567 -0.031228608 0.021865685 0.06696505
0.008805199 0.04285042 0.008531024 0.020549685 0.001316617 0.047619417 -0.023174135 0.0026587506
-0.008813104 -0.047068827 0.049080662 -0.03932149 -0.014106882 0.07217334 0.032300863 0.0043919217
0.05780485 0.04754891 -0.03232291 -0.018282706 0.06834767 0.010350672 0.006160854 0.03887907
-0.0069378307 0.019301075 -0.03912175 -0.069565825 0.040144343 -0.053655103 0.055380117 0.035451636
0.03680322 0.07925894 0.04137694 0.012095841 -0.047040656 -0.00615758 -0.0071728304 0.0451917
-0.068432294 -0.031158239 -0.06750996 0.016379982 -0.009518417 -0.07444433 -0.1450348 0.05186617
00000000: f532 4b3e 9431 383e a1ff a63d bf77 3c3e
00000010: 0869 963d 9f89 bd3d 02b3 963d 1cc6 343d
00000020: 7981 a03c 82d6 6cbc c412 2ebc 22d8 ba3c
00000030: 12fb a4bb 7c29 f1bc a4fd 643a 139f 31bd
00000040: 91b6 333d 0fe9 51bc 1d3a 593d 1ad0 42bd
00000050: 8299 dfbc f2a7 02bd b8fc 233c 1ede cebc
00000060: 6360 1cbd 016d 7f3c 6a23 16bd 536c 553d
00000070: 6369 7abd 60d1 15bd 2861 a3bc 3430 84bd
00000080: 25de c43b b939 3fbd 25fd b0bb ed58 7f3d
00000090: 00e7 aabc b800 cd39 3405 07bd 3f7d 9a3a
000000a0: d949 a7bb 1bfd c53a 6018 aebc cccd 39b9
000000b0: 7c47 e73c 4f9b d13c e637 043d c86a a53c
000000c0: a82b 3fbd f88f 223d acc6 7aba f7c3 d2bc
000000d0: 096b 3e3d 2c81 46bd ccb4 c9bc a94d 02bd
000000e0: f62a 873c ea9b afbc 1162 98bd 0452 203d
000000f0: c987 3abd eef5 31bb ef3b 70bc 7f2c b93c
00000100: 9aa2 efbc 7fc5 613d 26b4 1dbd 70fb 663c
00000110: 1478 163d 55b3 673d 83d9 8f3d 78b4 b33d
00000120: 4f90 4abd 1540 3d3d 93ba 913b 855b 72bd
00000130: 2b9f bc3c 947a e5bc 7bc8 d0bd 5b61 22bd
00000140: caa2 bc3b 18a4 fb3c 4394 e3bc 7008 1b3d
00000150: 3e1a 7abd f167 d63c 9299 cabc 0dfa 0dbd
00000160: 2d28 1f3d 5f47 233c f35e 583d 37a3 e7bb
00000170: 19db 0fbc 2474 e9bc c2cb cb3c b0ab b8bc
00000180: f91a 82bc 6563 5d3c bd64 5f3d 8d06 0bbe
00000190: d9d1 06be 7416 bebd 4e36 98bc 2049 433d
000001a0: 12a6 1bbd 2725 1a3e a3f5 f13d 2620 9d3d
000001b0: fab1 803d 1ddb 5fbd 2edd 273d a015 8f3a
000001c0: e9c4 1a3d 09af 853c 7fef 893c a59f 133d
000001d0: edd0 d13c cd37 393c 3ff2 47ba 6539 b33c
000001e0: 7034 d3bc 9dd4 c5bc f53e da3c 20d5 26bd
000001f0: b172 fb3c 6cb7 223c 9f03 f5bc 6d82 673d
00000200: b6fa 333d fa4f a93c b7e5 27bb 308a 783d
00000210: 9ddc 403d d1b0 443d a9a0 383c 82e7 d23c
00000220: 169f d8bc f6d0 56bd 4637 023d f094 383c
00000230: 8196 9bbd 6482 8b3d 08ac 663d ddd5 503d
00000240: 476f 0cbc 8658 39bc d781 f4bc 4bf9 c33c
00000250: d90a 133d dfec 46bd 872e 0e3d e6ff 933d
00000260: cf6d 76bd 193f f43b 9c94 293d ac41 0a3d
00000270: df4a 0fbc 3ca2 693d a059 a6bb 1f40 8cbb
00000280: e2da e33c 9afa 153c fd7f 5fbd 775f afbd
00000290: 1920 f13c e08e 95bd deee 97bd 8e70 61bd
000002a0: 83cb 7dbc aa7c f4bc b2a9 88bd 81d3 17bd
000002b0: 4741 353d b601 f63c f307 f33b 3abf 14bd
000002c0: d78b e83c e15a f03c 9db0 ce3c ad1f 2f3b
000002d0: 113a 153d ffaa 2f3d 303d 11bd cc7b ed3c
000002e0: 34a7 c7bc 5b83 5d3d b5f9 1e3d 02a1 6ebc
000002f0: 92e1 00bd 687d 663b eb05 33bd 11e3 fb3c
00000300: ab68 9bbc f4a6 b33c e220 fc3b 14c8 c0bc
00000310: 9124 153d 0a96 833c 87d9 02bd 69ff af3c
00000320: 526d e1bb a9f2 863c a933 65bd 9c4d a8bc
00000330: 09af 213d 23d3 ffbc aa1f b33c f924 893d
00000340: ae43 103c ec83 2f3d b5c5 0b3c d057 a83c
00000350: 5692 ac3a 940c 433d afd7 bdbc 6f3e 2e3b
00000360: d664 10bc 3ecb 40bd ce08 493d 920f 21bd
00000370: 8d20 67bc 9ecf 933d e94d 043d 1cea 8f3b
00000380: c7c4 6c3d a5c2 423d 0765 04bd 9dc5 95bc
00000390: ddf9 8b3d dd95 293c fde0 c93b a93f 1f3d
000003a0: be56 e3bb 4a1d 9e3c 213e 20bd 8778 8ebd
000003b0: 656e 243d 74c5 5bbd 43d6 623d bc35 113d
000003c0: f9be 163d 8352 a23d de7a 293d a22d 463c
000003d0: b4ad 40bd 86c5 c9bb 100a ebbb ef1a 393d
000003e0: 3b26 8cbd 903f ffbc a942 8abd 502f 863c
000003f0: 22f3 1bbc 4576 98bd 0184 14be 9f71 543d

res1.conv21.bias f4 [32]
-0.036148258 -0.009358364 0.028776696 -0.022141704 0.009409857 0.02097653 -0.050014902 -0.06815961
-0.043760948 -0.05422706 -0.0031075203 -0.03977869 -0.05468173 -0.016916612 0.015048354 0.027265789
0.020333782 0.056119263 -0.009350523 0.04452112 -0.014145686 -0.050505698 -0.04690944 -0.0052042045
-0.037501846 0.020069867 0.028350713 -0.017372683 -0.012938688 0.033415813 -0.017678382 -0.004317444
00000000: 3210 14bd d353 19bc 1bbd eb3c 8562 b5bc
00000010: cd2b 1a3c f9d6 ab3c 6ddc 4cbd 4497 8bbd
00000020: ae3e 33bd 321d 5ebd 8aa7 4bbb fbee 22bd
00000030: f3f9 5fbd b594 8abc 5f8d 763c 815c df3c
00000040: 0893 a63c 50dd 653d f032 19bc c75b 363d
00000050: 4fc3 67bc 10df 4ebd 1d24 40bd 0888 aabb
00000060: 899b 19bd 9069 a43c c13f e83c 2851 8ebc
00000070: cafc 53bc 05df 083d 41d2 90bc 5879 8dbb

res2.conv20.weight f4 [32, 32, 3, 3]
-0.08076866 -0.041147552 -0.028470155 -0.09110518 -0.0013661818 -0.045798473 -0.08061025 -0.10223712
-0.059922714 -0.00024960257 -0.026973188 0.019127253 -0.06222626 -0.020484496 -0.033627335 -0.04477521
-0.060101256 -0.060659457 0.045109745 0.01960796 -0.0352981 -0.001382864 0.022675019 -0.028181776
0.05001651 -0.016717657 -0.04216386 -0.032589883 0.0141911125 0.025315933 -0.034524888 0.027499141
0.004189777 0.05218392 0.049876764 0.04278536 -0.0011954621 0.07970974 0.091093466 -0.0147232255
0.024859618 0.039804805 -0.013921716 0.042487435 0.0021934162 0.034364004 0.06971976 0.09294088
0.04764467 0.004440925 0.026490854 0.068619184 0.023264747 0.08044476 -0.029430414 0.041080896
0.030903101 -0.03238493 -0.033966124 0.012062731 -0.04401689 0.032422855 0.017857129 -0.04120984
0.011904347 0.019856786 0.05423958 0.0074992785 0.013299839 -0.0036721125 -0.022517128 -0.0489534
0.015088599 0.01993485 -0.026526442 -0.05481045 0.047444317 0.021862589 -0.02757712 0.04869731
-0.035170373 0.051329043 -0.043717325 0.0071857143 0.0058147577 0.05921092 -0.036954865 -0.03907803
-0.049424116 0.014406371 -0.032259267 0.031025939 -0.045693897 -0.06452537 0.0573016 -0.032851245
0.020244805 -0.05763089 0.004605226 -0.017185919 0.025473779 -0.05949715 0.0051950496 -0.03660515
-0.059082255 -0.05796264 -0.06814339 -0.030092144 0.043365438 0.01224802 0.020766519 0.021380518
0.02465404 0.002826414 -0.032447863 -0.03471704 -0.029273357 -0.061384056 -0.044251177 -0.07238959
0.018816525 0.048469536 -0.007337618 -0.0040086494 -0.016999545 -0.06442688 0.05454413 -0.028129613
0.022759527 -0.052087236 0.0139315175 0.01690145 -0.008825359 -0.03045088 0.04816245 0.03669069
0.0336092 -0.02610957 0.016530888 -0.0063505876 0.0039368533 -0.021026868 -0.011790748 0.015706673
-0.0056562787 -0.009806648 -0.015405918 0.00622114 -0.012124328 -0.045771964 0.03415083 -0.04834183
-0.03700143 0.043687936 -0.03929186 0.013169992 -0.04640241 0.03172057 -0.055106964 -0.044682775
0.02951547 0.035739537 -0.06136607 0.03594735 0.029761858 -0.012436419 -0.029142441 0.05653141
-0.031718694 -0.03524839 -0.036603715 -0.03907598 -0.01517631 -0.054180697 0.03807575 0.05243282
0.038186245 -0.013296754 0.059962228 0.017505111 0.009776445 0.011514817 -0.019108348 -0.050688494
-0.032244973 -0.048224144 0.03662074 0.029269746 0.006930133 -0.00086989976 -0.010193947 0.01744093
-0.017326947 -0.011168261 0.0036160962 0.03168841 -0.047248326 0.011003776 0.016618 -0.008280163
0.02147977 -0.006317347 0.025250291 0.0004016915 0.009580126 0.05406295 -0.025048248 0.0036965618
0.03545388 0.043751158 0.03194994 -0.06298314 0.009319056 -0.038999796 -0.03812757 -0.062047962
-0.005720456 -0.09838797 -0.10347547 -0.006425401 -0.013366945 0.00077566784 -0.059664913 -0.010017928
-0.058068126 0.032119326 0.021455938 -0.073030435 -0.046612035 -0.06674306 0.029606277 0.03435941
0.017884454 -0.013811334 -0.060677323 0.011543748 0.02664158 0.008426919 -0.019795705 -0.021971673
-0.033028513 0.016386526 -0.03390103 -0.031531252 -0.056073513 -0.028557545 -0.031379938 0.05104385
-0.050301977 0.034508996 -0.018129997 0.012573871 0.0015778707 -0.018646514 0.050657194 -0.00059695606
00000000: 0a6a a5bd 568a 28bd 3e3a e9bc 5a95 babd
00000010: 7411 b3ba 2e97 3bbd fd16 a5bd b261 d1bd
00000020: 8571 75bd 17dd 82b9 e0f6 dcbc c2b0 9c3c
00000030: f6e0 7ebd 1acf a7bc d1bc 09bd 3666 37bd
00000040: bc2c 76bd 0d76 78bd ffc4 383d dfa0 a03c
00000050: be94 10bd 3741 b5ba f6c0 b93c 78dd e6bc
00000060: 1dde 4c3d 78f3 88bc 03b4 2cbd f87c 05bd
00000070: d781 683c 5c63 cf3c f869 0dbd e145 e13c
00000080: 664a 893b cebe 553d 944b 4c3d b43f 2f3d
00000090: 0db1 9cba dc3e a33d 368f ba3d af39 71bc
000000a0: 66a6 cb3c 5d0a 233d e917 64bc 4e07 2e3d
000000b0: 6bbf 0f3b 45c1 0c3d 3cc9 8e3d ca57 be3d
000000c0: 0f27 433d 2e85 913b 5903 d93c 3788 8c3d
000000d0: b695 be3c 39c0 a43d 0d18 f1bc 7144 283d
000000e0: 8028 fd3c 0fa6 04bd 1020 0bbd c3a2 453c
000000f0: 0e4b 34bd d4cd 043d 1d49 923c a6cb 28bd
00000100: 730a 433c b3aa a23c 522a 5e3d 82bc f53b
00000110: 91e7 593c d3a7 70bb d775 b8bc 5c83 48bd
00000120: 2c36 773c 694e a33c fb4d d9bc ec80 60bd
00000130: f954 423d 2c19 b33c 6ae9 e1bc d576 473d
00000140: cf0e 10bd 673e 523d f010 33bd 2476 eb3b
00000150: b989 be3b 2687 723d fc5d 17bd 4910 20bd
00000160: f170 4abd b308 6c3c 4b22 04bd 1c2a fe3c
00000170: 8629 3bbd e125 84bd 15b5 6a3d 078f 06bd
00000180: 6fd8 a53c 5e0e 6cbd 70e7 963b 7cc9 8cbc
00000190: 63ae d03c 49b3 73bd 3c3b aa3b 48ef 15bd
000001a0: 3c00 72bd 3c6a 6dbd c38e 8bbd cd83 f6bc
000001b0: f59f 313d ebab 483c 8c1e aa3c 3226 af3c
000001c0: 45f7 c93c 5c3b 393b 0de8 04bd 7433 0ebd
000001d0: aece efbc d96d 7bbd b940 35bd fe40 94bd
000001e0: 1d25 9a3c fe87 463d 6770 f0bb fd5a 83bb
000001f0: a142 8bbc 3df2 83bd aa69 5f3d 1370 e6bc
00000200: 3072 ba3c 6d59 55bd 0541 643c e974 8a3c
00000210: 3d98 10bc 2074 f9bc fd45 453d fa48 163d
00000220: cda9 093d bde3 d5bc c96b 873c 9718 d0bb
00000230: b800 813b 8a40 acbc fb2d 41bc 48ab 803c
00000240: 4e58 b9bb 10ac 20bc 1a69 7cbc b4da cb3b
00000250: 1ea5 46bc 627b 3bbd bee1 0b3d 1502 46bd
00000260: d08e 17bd 1ff2 323d 80f0 20bd f3c6 573c
00000270: 7410 3ebd 6eed 013d d7b7 61bd 4905 37bd
00000280: 6dca f13c 9f63 123d fd5a 7bbd 873d 133d
00000290: 24cf f33c 1fc2 4bbc 21bc eebc 7b8d 673d
000002a0: 76eb 01bd 9e60 10bd c7ed 15bd 230e 20bd
000002b0: 0fa6 78bc 94ec 5dbd 51f5 1b3d ccc3 563d
000002c0: 2e69 1c3d a1da 59bc f49a 753d e166 8f3c
000002d0: 622d 203c a5a8 3c3c 1c89 9cbc bd9e 4fbd
000002e0: 4e13 04bd ae86 45bd a1ff 153d 1bc7 ef3c
000002f0: 2b16 e33b fc09 64ba 8304 27bc 48e0 8e3c
00000300: 3ef1 8dbc 15fb 36bc 07fc 6c3b b5cb 013d
00000310: 7687 41bd 2f49 343c 7922 883c 85a9 07bc
00000320: 58f6 af3c bf01 cfbb b3d9 ce3c 1f9a d239
00000330: f6f5 1c3c 1d71 5d3d fc31 cdbc 0442 723b
00000340: 1638 113d 6a34 333d f1dd 023d 4efd 80bd
00000350: f4ae 183c 40be 1fbd a82b 1cbd 0126 7ebd
00000360: aa72 bbbb a27f c9bd f2ea d3bd 2c8c d2bb
00000370: 0801 5bbc 3056 4b3a 3263 74bd 3c22 24bc
00000380: d8d8 6dbd 8e8f 033d 5dc4 af3c fb90 95bd
00000390: 43ec 3ebd 96b0 88bd dd88 f23c 74bc 0c3d
000003a0: 6b82 923c ef48 62bc c988 78bd fd21 3d3c
000003b0: 713f da3c 0f11 0a3c 9a2a a2bc f0fd b3bc
000003c0: e848 07bd 093d 863c cedb 0abd ea26 01bd
000003d0: 57ad 65bd 83f1 e9bc 4088 00bd 5b13 513d
000003e0: 7209 4ebd 4e59 0d3d 5c85 94bc a302 4e3c
000003f0: 8ed0 ce3a 93c0 98bc eb7d 4f3d 0b7d 1cba

res2.conv20.bias f4 [32]
0.034009486 0.017962242 -0.04587353 -0.016379844 0.032784387 -0.023015833 0.048561476 0.035545822
0.03392346 -0.008260391 -0.02718731 -0.0057453457 0.004277357 0.008085301 -0.033644103 0.023749381
-0.015565495 0.006882548 -0.0379803 -0.013341714 0.01838656 0.015421089 -0.012320164 -0.00970826
0.041208483 0.008763792 -0.011160189 0.04546073 -0.028111622 -0.039861027 0.02864406 -0.030896807
00000000: 884d 0b3d 8d25 933c e2e5 3bbd 062f 86bc
00000010: ec48 063d b38b bcbc 66e8 463d 7f98 113d
00000020: 53f3 0a3d 9756 07bc ecb7 debc 7443 bcbb
00000030: 1229 8c3b 3678 043c 66ce 09bd 108e c23c
00000040: 6b06 7fbc ff86 e13b 3b91 1bbd 3497 5abc
00000050: 699f 963c bca8 7c3c 83da 49bc 650f 1fbc
00000060: 3aca 283d 0296 0f3c 3ad9 36bc 0835 3a3d
00000070: 584a e6bc 5145 23bd f3a6 ea3c 4d1b fdbc

res2.conv21.weight f4 [32, 32, 3, 3]
-0.022203768 -0.056035813 -0.05361766 -0.014692294 0.03583629 0.034411635 -0.04083273 0.010731345
-0.007025764 0.01728723 -0.008307362 0.049996603 0.035885535 0.065057784 0.048360392 0.058082458
-0.02479971 0.005969722 -0.044831753 0.007787343 -0.033696465 0.0412022 -0.012545528 -0.025122546
-0.032711383 0.017664403 0.04279018 0.04896591 0.04047697 0.06960325 0.026342118 0.016446773
-0.008137217 -0.037095923 0.051350925 0.016612737 0.019482572 -0.009034353 -0.0033470157 0.042508684
0.038697504 -0.027217375 -0.018812858 0.06996446 0.0026567427 -0.0151193505 0.049664464 -0.00072049745
0.043655105 0.0033493165 0.06847049 0.04282524 -0.026141573 0.037902173 -0.021422502 -0.039540228
-0.041657962 -0.013096048 -0.032363225 0.010194205 -0.03560257 -0.08827212 -0.040746108 0.0719882
-0.049471896 0.059023272 0.043474294 -0.03585868 -0.067972496 -0.06445038 -0.038965166 0.014291504
-0.05638269 0.02626829 -0.024811354 0.0045387964 0.0017437813 -0.027852252 0.045055673 0.029278828
0.055470347 0.05286154 -0.040121414 0.035873394 -0.01852275 -0.06943075 0.0024991177 -0.0015200888
0.0018907227 0.074344486 -0.08702686 -0.052623767 -0.11508799 -0.0018057671 -0.04577949 -0.0837154
-0.04398903 -0.011503752 -0.054922387 0.018271213 -0.02038577 -0.024535943 -0.028656358 0.045439176
0.033262968 -0.009000384 -0.013425455 0.0648906 0.025668152 0.034270614 -0.048436277 -0.03960455
0.024192885 -0.035486877 -0.05244848 0.023581306 0.023195025 -0.012817772 0.06705854 0.020065319
-0.068888776 -0.06400396 -0.028899232 -0.050593477 0.0064379117 -0.0033939313 -0.027657077 0.0038241195
-0.036810633 0.012370082 -0.034950934 -0.04303304 0.041047793 -0.04431988 -0.050282393 -0.048368428
-0.02847609 0.10350932 -0.03911448 0.0685218 0.03160861 0.033145167 0.037803877 0.076789506
-0.05712487 0.048381165 0.0060873344 -0.04627991 0.0751559 -0.022526735 -0.03669886 0.017600706
0.0067419284 -0.051531874 0.035292424 0.048948895 -0.03538177 0.022340288 -0.01976571 -0.06322028
0.004132382 -0.05744857 0.046901327 -0.006387046 0.07561783 -0.041328218 0.0464765 0.005414747
-0.0107316775 -0.013117545 -0.050482713 -0.13646302 -0.09038913 0.041156914 -0.21412124 -0.037387103
0.03929358 -0.06526613 -0.009989721 -0.044542633 -0.030744772 -0.007828545 -0.030710148 0.02976228
0.0020223537 -0.019390484 0.0039177877 -0.0118575655 -0.030058471 0.03218394 0.043805975 -0.034812085
0.028746167 -0.020337872 -0.05380381 -0.08250583 0.006257415 0.010205915 -0.04872566 0.045437444
-0.106768124 0.008132712 0.058058836 -0.06853664 0.027221892 -0.027980182 -0.06560086 0.04979816
-0.03986745 0.007911443 0.019602757 0.050153065 -0.07487191 -0.022668535 -0.06364632 0.01992703
0.051015288 -0.057728734 -0.013078622 0.009111503 0.021816207 -0.051179018 0.03238284 0.0042112316
0.05782457 0.04399378 0.048036747 0.05225802 -0.03703598 -0.019881666 -0.039023098 0.057504006
-0.051075805 -0.06508929 -0.039945662 -0.06320312 -0.01926374 -0.0274181 0.04446582 0.057796255
0.009155985 -0.07189255 -0.011117916 0.012453678 0.0023458782 0.0069667925 0.049600646 0.020074401
-0.031374503 0.06747427 0.013020345 0.033572022 0.058415353 0.0765541 0.017586967 -0.050538167
00000000: ade4 b5bc cf85 65bd 319e 5bbd f3b7 70bc
00000010: 13c9 123d 37f3 0c3d 3840 27bd 86d2 2f3c
00000020: 6138 e6bb f39d 8d3c 9a1b 08bc 3dc9 4c3d
00000030: b6fc 123d 043d 853d 8c15 463d dfe7 6d3d
00000040: c328 cbbc a89d c33b 80a1 37bd f82c ff3b
00000050: 4e05 0abd a3c3 283d c28b 4dbc cccd cdbc
00000060: 5ffc 05bd f0b4 903c c144 2f3d 7a90 483d
00000070: 2ecb 253d 268c 8e3d 6dcb d73c 62bb 863c
00000080: f651 05bc e5f1 17bd 5955 523d 6f17 883c
00000090: ea99 9f3c d304 14bc 9b59 5bbb 961d 2e3d
000000a0: 4681 1e3d f9f6 debc 6c1d 9abc 8749 8f3d
000000b0: bf1c 2e3b 27b7 77bc f76c 4b3d c4df 3cba
000000c0: b2cf 323d 3580 5b3b 423a 8c3d 8569 2f3d
000000d0: da26 d6bc 4f3f 1b3d 3e7e afbc eff4 21bd
000000e0: 8aa1 2abd ce90 56bc 4d8f 04bd 9805 273c
000000f0: 00d4 11bd 03c8 b4bd 64e5 26bd 8d6e 933d
00000100: 0ba3 4abd 63c2 713d 1a12 323d 8de0 12bd
00000110: 2a35 8bbd 90fe 83bd f099 1fbd ea26 6a3c
00000120: 89f1 66bd 9930 d73c 2e41 cbbc 2fba 943b
00000130: 978f e43a 682a e4bc 4c8c 383d 27da ef3c
00000140: e034 633d 5885 583d 5a56 24bd fbef 123d
00000150: 06bd 97bc b631 8ebd 3dc8 233b b73d c7ba
00000160: 20d2 f73a ec41 983d 233b b2bd 058c 57bd
00000170: 41b3 ebbd 7daf ecba 4683 3bbd fb72 abbd
00000180: d72d 34bd 3c7a 3cbc 4cf6 60bd 83ad 953c
00000190: 0f00 a7bc 9aff c8bc bdc0 eabc 6e1e 3a3d
000001a0: c03e 083d 5976 13bc 71f6 5bbc 5de5 843d
000001b0: 0446 d23c 585f 0c3d 1e65 46bd 6138 22bd
000001c0: 2830 c63c b05a 11bd 38d4 56bd 952d c13c
000001d0: 7e03 be3c a201 52bc fd55 893d 0660 a43c
000001e0: 8f15 8dbd 8214 83bd 15be ecbc 1b3b 4fbd
000001f0: 1ef5 d23b b86c 5ebb 1891 e2bc 149e 7a3b
00000200: bfc6 16bd e2ab 4a3c b628 0fbd 6a43 30bd
00000210: bb21 283d c388 35bd e9f4 4dbd f91d 46bd
00000220: b046 e9bc b2fc d33d 8136 20bd 2855 8c3d
00000230: 0878 013d 3ac3 073d 3dd8 1a3d d143 9d3d
00000240: c5fb 69bd 542b 463d 4378 c73b 0190 3dbd
00000250: 56eb 993d fd89 b8bc 8b51 16bd 5b2f 903c
00000260: 65eb dc3b 1613 53bd ca8e 103d a37e 483d
00000270: 7aec 10bd fb02 b73c b3eb a1bc a279 81bd
00000280: ef68 873b 314f 6bbd 9b1b 403d 6d4a d1bb
00000290: 85dd 9a3d c747 29bd 245e 3e3d 316e b13b
000002a0: ebd3 2fbc f9ea 56bc f6c6 4ebd f6bc 0bbe
000002b0: f01d b9bd 2794 283d 9942 5bbe 3823 19bd
000002c0: 4ef2 203d 40aa 85bd edab 23bc 5672 36bd
000002d0: 76dc fbbc 4c43 00bc d993 fbbc 06d0 f33c
000002e0: 7789 043b cbd8 9ebc c960 803b 3c46 42bc
000002f0: 2f3d f6bc 4fd3 033d e56d 333d 1e97 0ebd
00000300: 157d eb3c 9c9b a6bc 6261 5cbd d1f8 a8bd
00000310: 000b cd3b b636 273c 8f94 47bd 9d1c 3a3d
00000320: 3fa9 dabd 113f 053c 1acf 6d3d f05c 8cbd
00000330: 7200 df3c b236 e5bc be59 86bd 28f9 4b3d
00000340: 0d4c 23bd ff9e 013c f695 a03c 4d6d 4d3d
00000350: 7256 99bd 5db3 b9bc 0059 82bd 033e a33c
00000360: 68f5 503d f774 6cbd b747 56bc 6a48 153c
00000370: e7b7 b23c 17a1 51bd dea3 043d 5ffe 893b
00000380: 75d9 6c3d d232 343d 2ec2 443d 810c 563d
00000390: 0ab3 17bd e0de a2bc afd6 1fbd 5289 6b3d
000003a0: dd34 51bd 894d 85bd 109e 23bd a370 81bd
000003b0: fece 9dbc ec9b e0bc cb21 363d c4bb 6c3d
000003c0: fc02 163c 673c 93bd eb27 36bc 830a 4c3c
000003d0: 4ebd 193b b149 e43b 0c2a 4b3d 1273 a43c
000003e0: 8d82 00bd f32f 8a3d 4953 553c d182 093d
000003f0: f044 6f3d 65c8 9c3d 8b12 903c 1c01 4fbd

res2.conv21.bias f4 [32]
-0.017552122 0.044337478 -0.00027139403 0.011547338 -0.046039175 0.043718144 0.044615097 0.02059293
-0.021773472 -0.051047526 -0.031971622 0.036974274 0.017818097 0.002838767 -0.020366736 0.035385303
0.03190821 -0.042888362 -0.03979802 0.04066287 -0.030943384 0.022601958 0.023843862 -0.051675964
0.017814022 -0.046397112 0.038937613 -0.016035836 -0.044782057 0.033789698 -0.015073329 0.050010487
00000000: 78c9 8fbc 379b 353d e449 8eb9 0c31 3d3c
00000010: 9393 3cbd cc11 333d 52be 363d 81b2 a83c
00000020: 485e b2bc 3617 51bd adf4 02bd 5672 173d
00000030: 42f7 913c 9b0a 3a3b 24d8 a6bc 2ef0 103d
00000040: 2fb2 023d b5ab 2fbd 4003 23bd 1c8e 263d
00000050: fb7c fdbc be27 b93c 3454 c33c 2daa 53bd
00000060: b6ee 913c e60a 3ebd 0c7d 1f3d 965d 83bc
00000070: 646d 37bd 1167 0a3d 20f6 76bc ccd7 4c3d

res3.conv20.weight f4 [32, 32, 3, 3]
-0.03193373 -0.016448915 0.04808437 0.04955035 -0.022712475 0.06505012 0.021576207 -0.012033016
0.061973065 0.0537923 -0.039527047 -0.010273506 -0.00017319861 0.033677313 -0.011787731 -0.0029434992
0.042966872 0.05796453 -0.046342343 0.04807606 0.05843501 0.001575117 -0.04995099 0.021612734
0.040752623 0.031504583 -0.021861376 -0.04927819 0.0013826604 -0.023066191 -0.03786001 0.056780253
0.04809398 0.052380074 0.0020560457 -0.0271846 -0.019875769 0.040009245 -0.028080657 0.033149064
0.009109935 0.04460904 -0.0205625 -0.03766162 -0.022829654 -0.02647405 -0.004272625 0.03747646
0.024049385 0.038939513 0.0044248234 0.039955955 -0.050952945 0.009665904 -0.06285276 -0.011958735
0.03257676 0.061861344 -0.015356352 -0.009786869 0.036622193 0.03833298 -4.2879466e-05 0.024877483
0.016797466 0.03294015 -0.051503822 0.051468115 -0.024439925 0.06558526 0.0018877524 -0.02916529
-0.010823608 -0.022415176 0.053911835 0.02235477 -0.03450596 -0.04010227 0.004363222 -0.00777609
-0.0076095075 -0.012093359 -0.014989463 -0.012111454 -0.008923438 -0.021824786 -0.03324871 -0.0014741538
-0.022101829 -0.0011483292 -0.045512706 0.006322978 0.030730741 0.05033972 0.06475769 0.02599755
0.00076393405 0.025533807 0.057758648 -0.030352546 -0.066524096 0.010367421 -0.041339073 0.055796396
0.051303003 -0.0055522043 -0.013544301 0.054704733 -0.016881332 -0.03679814 0.023280138 0.058050722
0.04233899 0.036060322 0.0044811396 -0.02057305 -0.0062017394 0.05275422 0.022137854 -0.056166537
0.007332001 -0.0017071156 -0.01385464 -0.027540607 -0.025380543 -0.029246628 0.047769092 0.008852826
-0.020888086 0.01624949 0.05479273 0.006947956 -0.0013390383 0.03408548 0.048543673 -0.0505281
-0.062313955 0.027724579 0.0064924485 -0.0047635324 -0.03506518 -0.034649633 -0.020655455 -0.0015710887
-0.021519462 -0.03047122 -0.056125104 -0.056523874 0.048790175 -0.0112108225 0.04772433 -0.060061894
0.008588505 0.06879619 0.0385109 0.00096093107 0.011806067 -0.014645888 -0.07290353 -0.012681397
-0.0130587965 0.007913833 -0.01846453 -0.047301788 0.058363263 -0.019624945 0.04090988 -0.048613537
0.028507851 0.047380164 -0.032695025 -0.040359445 -0.040853642 0.0011148341 -0.05129741 -0.039193094
-0.016126886 0.0508138 -0.025975212 -0.025038475 -0.02151063 -0.031231042 0.006865551 0.041541193
-0.049121566 0.049522884 -0.010948031 -0.050570715 0.03521575 -0.03325715 0.051350217 -0.05720261
-0.028666826 0.018188514 -0.002138157 -0.028606456 0.075778306 0.0032249037 0.03082062 0.032593597
-0.029523179 0.05233353 -0.04611186 -0.04484242 0.030533975 0.031485762 -0.0056134453 0.008949066
0.02784438 -0.021477694 -0.03481479 -0.04195996 -0.03415478 -0.0050369664 0.05633027 -0.024587542
-0.016661488 -0.042190757 -0.03957154 -0.03160147 0.0053461175 0.039461255 0.023165617 0.03800362
-0.06620733 -0.032486018 -0.009108641 -0.049563885 -0.029961403 0.052856497 0.035873577 -0.02557224
0.031060223 -0.05194912 -0.057799764 -0.054139655 -0.059693135 -0.013922773 0.036977984 -0.004453609
0.021049956 0.0011659053 -0.045214348 0.030023733 0.018735169 -0.055239595 -0.047418848 -0.026230082
-0.0022473843 0.02481157 0.020844085 -0.014344139 -0.008802891 -0.02428911 -0.011659987 -0.061162848
00000000: f1cc 02bd e0bf 86bc 1ef4 443d 4ff5 4a3d
00000010: 830f babc ff38 853d 96c0 b03c 2126 45bc
00000020: 78d7 7d3d 5155 5c3d 1de7 21bd 3552 28bc
00000030: a69c 35b9 39f1 093d 5421 41bc b9e7 40bb
00000040: 08fe 2f3d 376c 6d3d 78d1 3dbd 67eb 443d
00000050: 8d59 6f3d 2874 ce3a 6999 4cbd 300d b13c
00000060: 39ec 263d f30a 013d a116 b3bc edd7 49bd
00000070: 623a b53a 4ff5 bcbc 1913 1bbd 6992 683d
00000080: 31fe 443d 7d8c 563d b9be 063b 3db2 debc
00000090: 82d2 a2bc bce0 233d 6809 e6bc 50c7 073d
000000a0: d641 153c f8b7 363d b072 a8bc 1243 1abd
000000b0: 4105 bbbc 1be0 d8bc 6001 8cbb eb80 193d
000000c0: 3703 c53c 0a7f 1f3d 1cfe 903b dba8 233d
000000d0: 09b4 50bd bd5d 1e3c f3b8 80bd 92ee 43bc
000000e0: 356f 053d 5262 7d3d 3599 7bbc 1b59 20bc
000000f0: 2701 163d 0b03 1d3d 7ad9 33b8 ddcb cb3c
00000100: d79a 893c 40ec 063d acf5 52bd 3bd0 523d
00000110: 3d36 c8bc 9151 863d 766e f73a 0cec eebc
00000120: 8155 31bc 08a0 b7bc a8d2 5c3d 5a21 b73c
00000130: 1f56 0dbd 4742 24bd 5cf9 8e3b 92ce febb
00000140: 2d59 f9bb 3923 46bc 5d96 75bc 1f6f 46bc
00000150: 9d33 12bc e5c9 b2bc cd2f 08bd 6538 c1ba
00000160: e50e b5bc 8983 96ba 886b 3abd fc30 cf3b
00000170: 09bf fb3c 0631 4e3d ae9f 843d d0f8 d43c
00000180: bf42 483a 462c d13c 5594 6c3d e7a5 f8bc
00000190: c93d 88bd 1edc 293c 2953 29bd c38a 643d
000001a0: 1923 523d 44ef b5bb eae8 5dbc 1212 603d
000001b0: b84a 8abc a5b9 16bd fdb5 be3c 98c6 6d3d
000001c0: a66b 2d3d fdb3 133d 86d6 923b d088 a8bc
000001d0: f637 cbbb cf14 583d 725a b53c e20e 66bd
000001e0: 4841 f03b 4bc1 dfba 92fe 62bc d79c e1bc
000001f0: dbea cfbc a096 efbc 86a9 433d 720b 113c
00000200: 7e1d abbc a71d 853c 576e 603d aeab e33b
00000210: ab82 afba 379d 0b3d bbd5 463d 8ef6 4ebd
00000220: eb3c 7fbd a81e e33c 9bbe d43b 6817 9cbb
00000230: 82a0 0fbd c6ec 0dbd a135 a9bc fdec cdba
00000240: 9549 b0bc c89e f9bc 70e3 65bd 9485 67bd
00000250: 35d8 473d 99ad 37bc 967a 433d 7603 76bd
00000260: cdb6 0c3c 04e5 8c3d 9bbd 1d3d fee6 7b3a
00000270: 3c6e 413c 4ef5 6fbc 724e 95bd a2c5 4fbc
00000280: 90f4 55bc 05a9 013c ed42 97bc 85bf 41bd
00000290: 510e 6f3d 7ec4 a0bc 1e91 273d fd1e 47bd
000002a0: 4c89 e93c b411 423d 38eb 05bd f24f 25bd
000002b0: 2656 27bd a01f 923a 3c1d 52bd f088 20bd
000002c0: 881c 84bc 2222 503d f8c9 d4bc 7d1d cdbc
000002d0: 1037 b0bc 3ed8 ffbc 6bf8 e03b 1927 2a3d
000002e0: b233 49bd 82d8 4a3d 5f5f 33bc 3d23 4fbd
000002f0: 643e 103d a638 08bd 9b54 523d 494d 6abd
00000300: b1d6 eabc 1400 953c 5220 0cbb 1658 eabc
00000310: a831 9b3d e858 533b 867b fc3c dd80 053d
00000320: 98da f1bc af5b 563d cadf 3cbd afac 37bd
00000330: 6322 fa3c 37f7 003d fef0 b7bb 1a9f 123c
00000340: e619 e43c fdf1 afbc f499 0ebd 35de 2bbd
00000350: e2e5 0bbd 230d a5bb 92ba 663d d06b c9bc
00000360: ac7d 88bc 37d0 2cbd c415 22bd 8b70 01bd
00000370: 7c2e af3b 20a2 213d d2c5 bd3c afa9 1b3d
00000380: b597 87bd 0f10 05bd 693c 15bc 8003 4bbd
00000390: 9e71 f5bc 0e80 583d 2cf0 123d e07c d1bc
000003a0: 0272 fe3c 9ac8 54bd 72bf 6cbd 8bc1 5dbd
000003b0: ca80 74bd 581c 64bc 3a76 173d 95ef 91bb
000003c0: f570 ac3c 4ad1 983a ae32 39bd 55f4 f53c
000003d0: 7f7a 993c ea42 62bd 443a 42bd 78e0 d6bc
000003e0: da48 13bb a241 cb3c 37c1 aa3c ae03 6bbc
000003f0: 003a 10bc f5f9 c6bc 8809 3fbc e585 7abd

res3.conv20.bias f4 [32]
0.01764091 0.045353524 0.02606863 -0.033728685 0.008493141 0.0396091 0.019379225 -0.017387237
-0.012344188 -0.04272502 -0.03302936 -0.027581384 0.03318651 0.015827533 -0.011389044 0.026038313
0.015535064 0.02425774 -0.040454168 -0.015890315 -0.039151274 -0.016350044 0.02831732 -0.01686043
0.01652916 -0.0062864544 0.013241171 0.04820833 -0.041675355 -0.05194167 -0.04043943 0.051499233
00000000: ab83 903c 9ec4 393d e18d d53c 1727 0abd
00000010: d126 0b3c 273d 223d 2ec1 9e3c ae6f 8ebc
00000020: 473f 4abc 6e00 2fbd cb49 07bd 5bf2 e1bc
00000030: 94ee 073d bea8 813c 1d99 3abc 4d4e d53c
00000040: c886 7e3c 2bb8 c63c 45b3 25bd 682c 82bc
00000050: 165d 20bd 87f0 85bc b9f9 e73c e21e 8abc
00000060: 2968 873c 9afe cdbb 7ff1 583c 1976 453d
00000070: c7b3 2abd cac0 54bd d1a3 25bd dcf0 523d

res3.conv21.weight f4 [32, 32, 3, 3]
-0.006760121 -0.04571996 0.018777935 0.038881678 0.055316463 0.024996333 -0.0009830067 0.015921399
0.036043067 -0.042641953 0.039184045 0.033253923 0.021859255 -0.038301867 0.006267862 0.054247137
0.021776628 -0.0057225297 0.008565864 -0.073853545 -0.0033806954 -0.027969802 -0.010321801 0.01301362
-0.009036821 0.08492709 0.05279667 0.014944969 -0.038830005 -0.009375394 0.021070715 0.034384925
-0.024464961 0.047716934 0.06341564 0.07293538 -0.006357332 -0.035257917 0.024549354 0.05063481
0.012412193 0.04564994 -0.021563942 -0.012420212 -0.00010682714 -0.03286913 0.00023715584 0.028948827
-0.011637851 0.0034909677 -0.014322189 -0.033320684 0.044313848 0.0058790734 -0.03567173 -0.0651038
0.0058450974 -0.002514359 -0.0560259 0.06225113 0.014299425 -0.0021971231 -0.01363127 0.006026795
-0.010262582 -0.020701298 0.014625475 -0.032398093 0.00523371 -0.04474679 0.03266976 -0.030063482
-0.064620525 -0.03755209 0.012093653 0.059683472 0.07347601 0.018608633 -0.07259126 -0.013913986
-0.06398466 -0.012045416 -0.032557722 -0.031710587 -0.031213665 -0.046423204 -0.0045512742 0.017317997
-0.007159275 -0.03353722 -0.017958848 -0.024281314 0.0051085595 0.019881397 -0.028520089 0.0052304864
0.059118308 -0.0018629368 0.036394764 0.053450882 0.03404157 -0.049886826 -0.057465155 -0.04370839
-0.02850187 0.009228263 -0.040410735 0.06534442 -0.022878544 -0.0250843 0.06345689 -0.022122582
0.048157457 0.051422097 -0.016415704 0.0022263594 0.060669683 0.029802492 -0.04624374 0.06176395
-0.0487945 0.027628625 0.025694892 0.010260359 -0.060801316 -0.022482753 0.009433501 -0.050243896
-0.031593133 0.032565188 0.036630962 -0.02079603 0.03272635 -0.015110249 0.0094599575 -0.01789935
-0.04960798 0.005076067 0.02988311 -0.011869977 -0.002862553 0.020063713 0.004523717 0.053155694
-0.0020626339 0.022295738 -0.0064781667 -0.0111618815 0.05437724 -0.055836465 0.03748381 0.047089707
0.021912662 -0.016728304 0.011711025 -0.022296743 0.037667688 0.018837938 -0.010126094 0.015772793
0.026240578 0.040642347 0.008486363 0.02138282 -0.02629946 -0.0065734885 0.026546855 -0.021475853
-0.008667163 -0.014292182 0.040337622 -0.030981462 0.027515372 0.009916272 0.05579708 0.075095095
0.03667773 0.022050159 0.06008809 0.123488575 -0.02384859 0.027457442 0.07259724 0.0273709
0.0577931 0.031233585 -0.06123526 0.029493075 -0.061958626 -0.05516799 0.008906324 -0.019244768
-0.025555383 0.039416805 -0.018148342 -0.0086475 -0.0050297426 0.06588579 -0.005086717 -0.03464727
0.051727362 -0.0033407572 -0.044829205 -0.03742045 -0.0016934333 -0.029636566 -0.020174563 0.03003628
0.0074353674 -0.0024416419 0.046079896 -0.029106237 -0.03382071 0.018026004 0.048218925 0.04138955
0.040380254 0.044016276 -0.026265252 -0.01891964 -0.017718205 -0.056013994 -0.04848636 0.0045282044
-0.07411609 0.038437128 0.03654079 0.0061317286 0.014782997 -0.0746958 0.028880598 0.13795243
-0.08254547 0.052639488 0.007486049 0.014073422 -0.055064186 -0.029941281 -0.022754833 0.024642441
0.014838088 -0.02177736 -0.04438001 0.028458346 -0.026282411 0.04964882 -0.048837308 0.022632785
-0.03828739 -0.02359379 -0.014438794 0.007299342 0.08181708 -0.00052445283 0.0839639 0.08529777
00000000: 0184 ddbb da44 3bbd 2fd4 993c 6542 1f3d
00000010: 8493 623d 1cc5 cc3c 3bd8 80ba 986d 823c
00000020: e5a1 133d 54a9 2ebd 737f 203d 4435 083d
00000030: 2e12 b33c 6be2 1cbd a362 cd3b 3f32 5e3d
00000040: e664 b23c 0f84 bbbb d657 0c3c 8740 97bd
00000050: a88e 5dbb ed20 e5bc c51c 29bc 1437 553c
00000060: 2d0f 14bc 41ee ad3d 5241 583d bedb 743c
00000070: 360c 1fbd 419b 19bc 7e9c ac3c 35d7 0c3d
00000080: be6a c8bc d572 433d 0fe0 813d 255f 953d
00000090: 2b51 d0bb 9b6a 10bd ba1b c93c 7266 4f3d
000000a0: 835c 4b3c 6efb 3a3d dda6 b0bc 257e 4bbc
000000b0: 6208 e0b8 c8a1 06bd 09ad 7839 1726 ed3c
000000c0: afac 3ebc b8c8 643b 9da7 6abc 457b 08bd
000000d0: 7082 353d 3ea5 c03b 851c 12bd 2455 85bd
000000e0: 3b88 bf3b f2c7 24bb 6a7b 65bd 0afb 7e3d
000000f0: 2348 6a3c 9cfd 0fbb b155 5fbc 6c7c c53b
00000100: 6424 28bc c595 a9bc b09f 6f3c ddb3 04bd
00000110: 8b7f ab3b 6948 37bd bad0 053d b147 f6bc
00000120: c457 84bd 38d0 19bd 7524 463c a876 743d
00000130: 977a 963d 2271 983c baaa 94bd 7df7 63bc
00000140: 640a 83bd 235a 45bc 3f5b 05bd f6e2 01bd
00000150: cdb3 ffbc 4226 3ebd db22 95bb 79de 8d3c
00000160: 5a98 eabb 535e 09bd 6f1e 93bc 9be9 c6bc
00000170: b465 a73b 50de a23c f6a2 e9bc 8064 ab3b
00000180: 0a26 723d c92d f4ba ad12 153d 50ef 5a3d
00000190: 2c6f 0b3d 2156 4cbd 9560 6bbd 9207 33bd
000001a0: c17c e9bc 2432 173c ba85 25bd 4cd3 853d
000001b0: c96b bbbc 977d cdbc b0f5 813d 6b3a b5bc
000001c0: c140 453d fa9f 523d 3a7a 86bc 1de8 113b
000001d0: c680 783d 5b24 f43c 136a 3dbd 32fc 7c3d
000001e0: bedc 47bd 6d55 e23c 187e d23c 111b 283c
000001f0: cd0a 79bd c02d b8bc f98e 1a3c 8bcc 4dbd
00000200: cd67 01bd 1363 053d 590a 163d 705c aabc
00000210: 110c 063d fa90 77bc f0fd 1a3c a8a1 92bc
00000220: bd31 4bbd 2355 a63b 6dcd f43c 4b7a 42bc
00000230: ac99 3bbb a85c a43c b03b 943b c9b9 593d
00000240: 412d 07bb 8da5 b63c cd46 d4bb 53e0 36bc
00000250: abba 5e3d c7b4 64bd a088 193d 23e1 403d
00000260: 2f82 b33c cc09 89bc 99df 3f3c a9a7 b6bc
00000270: 6f49 1a3d 0552 9a3c ebe7 25bc f235 813c
00000280: 7bf6 d63c 9778 263d 630a 0b3c 062b af3c
00000290: f771 d7bc 6b66 d7bb ca78 d93c 21ee afbc
000002a0: b700 0ebc c229 6abc 1039 253d d6cc fdbc
000002b0: eb67 e13c dc77 223c 7b8b 643d 75cb 993d
000002c0: 633b 163d 89a2 b43c ee1e 763d 94e7 fc3d
000002d0: 1e5e c3bc 6eee e03c ddad 943d f038 e03c
000002e0: 75b8 6c3d 93dd ff3c d3d1 7abd 769b f13c
000002f0: 54c8 7dbd d5f7 61bd d5eb 113c 34a7 9dbc
00000300: 8659 d1bc 8473 213d d5ab 94bc 3eae 0dbc
00000310: 8ad0 a4bb 21ef 863d 7aae a6bb 4cea 0dbd
00000320: 12e0 533d 9bf0 5abb d49e 37bd 3046 19bd
00000330: 31f6 ddba 62c8 f2bc 2045 a5bc a50e f63c
00000340: 62a4 f33b f403 20bb 46be 3c3d 3470 eebc
00000350: 9687 0abd 45ab 933c 3581 453d 1788 293d
00000360: c465 253d 694a 343d 3a2a d7bc 5cfd 9abc
00000370: c525 91bc ee6e 65bd a299 46bd 5561 943b
00000380: 2dca 97bd 4070 1d3d ccab 153d abec c83b
00000390: 6234 723c 1dfa 98bd 0197 ec3c 6743 0d3e
000003a0: 990d a9bd 819c 573d 884d f53b 3694 663c
000003b0: fc8a 61bd 6b47 f5bc 5868 babc f2de c93c
000003c0: 741b 733c 6f66 b2bc d0c7 35bd 7a21 e93c
000003d0: 364e d7bc 905c 4b3d a109 48bd 6468 b93c
000003e0: 3dd3 1cbd c447 c1bc b190 6cbc 522f ef3b
000003f0: b78f a73d 6f7b 09ba 44f5 ab3d 99b0 ae3d

res3.conv21.bias f4 [32]
0.037777364 0.04547126 -0.05056268 0.02871837 -0.022912849 -0.008296015 0.019303797 -0.0068115075
-0.03537966 0.037861455 -0.011640078 -0.035222523 0.06150206 -0.0047503584 0.0042197886 0.011865758
-0.022115374 0.030791448 -0.010890462 0.007921699 -0.04934074 -0.017021302 0.014687486 -0.0282378
-0.045553546 -0.049980067 -0.039850418 0.017474053 -0.026184503 -0.0020848021 -0.00055893534 -0.035873756
00000000: 70bc 1a3d 1240 3a3d d01a 4fbd c942 eb3c
00000010: bab3 bbbc 02ec 07bc ff22 9e3c 1133 dfbb
00000020: 43ea 10bd 9d14 1b3d 07b6 3ebc 7e45 10bd
00000030: 96e9 7b3d e5a8 9bbb 2746 8a3b 9968 423c
00000040: 4d2b b5bc 593e fc3c e96d 32bc 04ca 013c
00000050: 8419 4abd 4270 8bbc c8a3 703c f552 e7bc
00000060: 5b96 3abd e6b7 4cbd 313a 23bd bf25 8f3c
00000070: e280 d6bc 2da1 08bb 8485 12ba 5cf0 12bd
