weights/QB/apnn.pth (torch, 324010 bytes, 6 tensors)

conv1.weight f4 [64, 5, 9, 9]
000000 c2 9d 30 3d 3b 71 03 3d de 81 1c 3c 35 6f 27 bd
       0.0431192 0.032090407 0.009552447 -0.04087754
000010 81 ab 2c 3d 08 ce cc 3d d9 ba cb 3d 61 29 b9 3a
       0.042155746 0.10000235 0.09947748 0.0014126712
000020 5d 54 e9 3c d9 c6 15 bd 36 e2 ac 3b 6e b2 21 3c
       0.02848261 -0.03656659 0.00527599 0.009869201
000030 9a 5e ac bc 88 94 21 bc 01 e6 18 3d 9a 6c 72 3d
       -0.021041203 -0.009862073 0.037328724 0.0591856
000040 49 2f b7 3d 65 8d 1c 3c 69 41 8f bc 3b 97 29 3d
       0.08944566 0.009555195 -0.017487245 0.04140399
000050 19 20 8f 3d 2a 65 9d bc 8c 27 7f bd 08 80 2b bd
       0.06988544 -0.019213278 -0.062293574 -0.041870147
000060 57 6a 56 bc 34 c2 13 3d e1 3b 55 bd 78 61 a9 3c
       -0.013086877 0.03607388 -0.052059058 0.02067636
000070 8c 59 73 3d 37 b2 0c bd d8 38 a9 3d 6c 98 36 bc
       0.05941157 -0.034349646 0.08262795 -0.011144739
000080 26 05 78 3d 04 fe a0 bc 6c af a9 bb 62 a7 bb bd
       0.060551785 -0.019652374 -0.0051783826 -0.09162785
000090 b3 a2 e4 ba 5a f1 47 bd 71 1a 63 3d 97 1c bb 3b
       -0.0017443508 -0.048814155 0.05544514 0.0057101953
0000a0 65 42 60 3d 3f 59 17 3d 17 73 eb bc 71 2b 92 3c
       0.05475082 0.036950346 -0.028741403 0.01784298
0000b0 4c 35 92 3b e0 b7 62 bd 64 f2 4a 3b fa 55 d9 bc
       0.00446192 -0.055351138 0.003096723 -0.026530255
0000c0 db 57 21 bc 1a 32 d3 3c 9b 95 52 3b ef 89 c0 3d
       -0.0098476065 0.025780726 0.003213263 0.09401309
0000d0 c9 e7 e6 bc 4a 0c cc bb f6 ac c8 bc fd 0f ae bd
       -0.028186696 -0.006227051 -0.024496537 -0.08499143
0000e0 32 68 4d bd e4 75 cd bb 94 3f 33 bd 43 96 44 bc
       -0.050148197 -0.006270157 -0.043761805 -0.011998716
0000f0 c8 1d 9b 3d b1 33 ab 3d 9c 17 a3 bd 87 e4 e9 bc
       0.0757404 0.08359469 -0.079634875 -0.028551353
000100 bd 2e 32 bb 97 7f 2b bd 80 6c ea bc 03 a9 8b 3d
       -0.0027188503 -0.041869726 -0.02861619 0.06819346
000110 d4 f2 54 bd 5c ab 8b 3d 80 29 88 bc 98 a5 29 3c
       -0.05198939 0.068197936 -0.016621351 0.010354422
000120 a1 10 c6 bc b5 f6 09 bd 16 73 11 bd 78 20 74 3c
       -0.024177851 -0.033682544 -0.035510145 0.014900319
000130 4b 49 b1 bd df 86 41 3a 41 49 cc bc 5a af 1f bd
       -0.08656558 0.0007382463 -0.024937274 -0.038985588
000140 59 f4 9d 3d 03 1f 86 bd 8d 89 4d bc bb 74 46 3d
       0.07712621 -0.06548884 -0.012545002 0.048451167
000150 1e 10 84 bd 47 1a 66 bd b9 43 11 bc ca f7 af 3d
       -0.064483866 -0.056177404 -0.008866244 0.08592184
000160 e6 e4 21 3b 4c 7c aa bd f3 66 86 3b af 14 f9 bc
       0.0024703084 -0.08324489 0.004101628 -0.03040537
000170 06 5b d4 bc 28 a6 34 3d 71 48 1f bd c2 30 9b bc
       -0.02592231 0.04410377 -0.038887445 -0.018944148
000180 ed ea 02 bd de e0 30 bd bb d5 7f bc 5b 84 56 bd
       -0.031962324 -0.0431832 -0.015614922 -0.052372318
000190 97 f0 29 bc 3b 0f 78 3d c0 84 7d 3d 89 d9 ec bc
       -0.0103723025 0.0605614 0.06189418 -0.028912323
0001a0 62 10 03 bc 85 f1 84 3c a0 1e f6 bb 15 ea c0 bc
       -0.007999511 0.016228447 -0.007510975 -0.023549119
0001b0 46 9f 4c bd f7 07 de bd 75 89 15 3d c7 7f 56 3c
       -0.049956582 -0.10841363 0.036508042 0.013091988
0001c0 66 fa bb 3b 73 74 f2 bd 1b 65 16 bd b6 6c eb bc
       0.005736637 -0.11838617 -0.036717515 -0.02873836
0001d0 b2 13 61 3d a9 5f 22 bd 37 30 29 3d a9 b4 a3 bd
       0.054950424 -0.03964201 0.041305747 -0.079934426
0001e0 77 e6 78 b9 bc 81 66 bd 33 54 8b bd 6e d9 e3 bd
       -0.00023736978 -0.056276068 -0.06803169 -0.11125456
0001f0 2d 01 9e bd e9 0a a5 bc 96 db 11 bd 5b 0d f1 3b
       -0.07715068 -0.020146804 -0.035609804 0.0073563284
000200 c6 a3 6c bd b8 31 4d bc 16 7e 94 bd b8 84 b2 bc
       -0.057773374 -0.012524061 -0.072506115 -0.0217918
000210 6e 9b 28 bc b5 56 5a bd 27 98 91 bc dc 79 e2 bd
       -0.010290964 -0.053305347 -0.017772747 -0.11058399
000220 80 33 63 bd ea 4c b2 3c c9 b5 ce bd 4b 5d 06 3d
       -0.055469036 0.021765191 -0.100932665 0.032803815
000230 c7 74 8e bc 6e b8 a0 bd 83 3f e2 bb 8c ed 27 3b
       -0.017389668 -0.07847677 -0.006904544 0.0025623767
000240 7c 40 5e 3d f6 89 b5 3d ae 1f 8c bd ed 6d a5 bc
       0.054260716 0.088642046 -0.0684198 -0.020194018
000250 2d d6 3b bc 8c 33 b3 bc 1b 61 8a bd 4f b2 7e bd
       -0.011464638 -0.021875165 -0.06756803 -0.062181767
000260 bd f4 82 bd a9 46 cc bc b4 02 19 3d fd 1d 14 bc
       -0.063943364 -0.024936037 0.037356094 -0.009040353
000270 61 1a 2b 3d 06 5a 92 bd 67 f1 4c bc 4b 5f 12 bd
       0.041773204 -0.07146077 -0.012508727 -0.03573541
000280 5f ad f2 3a 63 44 07 bd 9b fa f1 bc 5f 24 26 bd
       0.0018514803 -0.033024203 -0.029538443 -0.04056203
000290 16 1a 63 3d 72 84 d7 bd bb 68 9e 3d 57 50 83 bd
       0.0554448 -0.10523309 0.077348195 -0.06411808
0002a0 17 4d e3 bc a5 8c c1 b9 30 06 bb 3c de ba 91 bd
       -0.02774672 -0.00036916617 0.022830099 -0.0711572
0002b0 e3 74 a8 3d ba db 30 3d f5 77 f6 3c 80 f6 46 3c
       0.08225419 0.043178298 0.030086497 0.012143731
0002c0 51 92 84 3d f2 b3 d7 bd a0 3d 93 3d 78 63 ac bd
       0.0647322 -0.10532369 0.071894884 -0.0841741
0002d0 13 46 b6 3c 17 b1 d7 bc 74 52 da bc 1b 73 56 3c
       0.02225021 -0.02632956 -0.026650645 0.013088967
0002e0 6f f8 10 3d 9c e3 e8 3a 18 5f 38 3d ea c7 04 3d
       0.035393175 0.0017768028 0.045012563 0.032417215
0002f0 be 55 f1 bc 35 36 0c 3d 73 5d 60 3a a0 05 63 bd
       -0.02945983 0.034231383 0.0008558847 -0.055425286
000300 ba d0 0a 3d 95 56 1a bc ad 55 0a 3d 6b 90 dd 3b
       0.033890463 -0.009420057 0.033773113 0.0067616007
000310 ac b3 25 3d 07 07 9a bd 1f ff 71 3d 1d da 91 3d
       0.04045455 -0.075208716 0.059081193 0.0712168
000320 3d e7 38 3d 0b 34 1c 3d db e5 21 bd 52 43 1c bd
       0.0451424 0.03813557 -0.039525848 -0.03815014
000330 2f 14 68 bd 82 fa 91 bd 47 c3 69 3c f2 73 d2 bc
       -0.056659874 -0.07127859 0.014267749 -0.025690053
000340 cf 87 7d 3d ad 10 8f 3b 92 2c 41 bc 83 f8 29 3d
       0.061897095 0.0043660016 -0.011790412 0.041496765
000350 45 c8 69 bd 4c fa 3f bd 95 55 6e 3c 48 0a bb ba
       -0.057075758 -0.04686956 0.0145467715 -0.0014270032
000360 72 e2 4e 3b 18 46 4f 3c 5c bb 60 bd 15 09 b8 bd
       0.0031568077 0.012650989 -0.05486618 -0.08986107
000370 9c 8f 71 3d a4 f9 8d bd 86 3f 46 3d 0a 92 39 bc
       0.058974847 -0.06932381 0.048400424 -0.011326322
000380 e7 18 9a bd d2 7e a5 bd 8c 90 33 3d fb 46 3d 3d
       -0.07524281 -0.0808083 0.043839023 0.04621027
000390 cf 2d b8 3c 44 f4 a3 bd 79 05 3d bc a2 3e df bc
       0.02248278 -0.08005574 -0.011536949 -0.027251545
0003a0 49 95 03 3b 18 ec 08 3d e0 82 3d 3c 45 18 9b 3c
       0.0020077995 0.03342828 0.011566848 0.018932471
0003b0 3c f7 c0 bd 7a f4 c4 3d e7 a2 19 3b 21 c7 d9 bc
       -0.09422156 0.09616943 0.0023443045 -0.02658421
0003c0 d0 2d 90 bd cf 9f e4 3c 57 fa 7d bc 15 4a af bd
       -0.07039988 0.027908234 -0.01550158 -0.08559052
0003d0 43 ca ba bd ff ae b1 3c 23 90 e8 bc 12 97 cf 3b
       -0.091206096 0.02168989 -0.028389042 0.0063351477
0003e0 74 90 9d bc 15 a7 01 bc e5 de b6 bc 0e 00 3a bb
       -0.01923392 -0.007913371 -0.022323081 -0.002838138
0003f0 ef 6f 99 bd 1e 13 0c bd f2 0a 15 3d 97 b3 f6 bd
       -0.07492053 -0.03419792 0.03638739 -0.12045973

conv1.bias f4 [64]
000000 7b 98 7e bd 5a 85 e3 3a f2 78 c3 bc cc 01 0a 3b
       -0.062157135 0.0017358467 -0.023861382 0.00210582
000010 a7 da bd bb 08 5a be b8 0e 4a 4c ba 6e d6 6d bc
       -0.0057938877 -9.0766756e-05 -0.00077930174 -0.014516456
000020 00 00 00 00 e2 01 7e bc 03 4a 46 ba e8 19 e9 bd
       0.0 -0.015503379 -0.0007564129 -0.11381894
000030 de 46 2d bd ab b0 09 ba 9a b9 c1 bc 60 14 cc bd
       -0.042303912 -0.0005252461 -0.023648072 -0.09964824
000040 3b aa d0 bd 71 3d 86 b8 00 00 00 00 4d 58 2e 3d
       -0.10188719 -6.401062e-05 0.0 0.04256468
000050 a6 2f e8 bc 00 00 00 00 00 00 00 00 d1 4e 9a b9
       -0.028343033 0.0 0.0 -0.00029431892
000060 56 ee a5 3a 07 76 38 39 ad 47 17 bb 00 00 00 00
       0.0012659531 0.00017591576 -0.0023083494 0.0
000070 dd a8 8b 38 01 7f 60 bc f0 3c 50 bd 7b f6 98 bd
       6.65949e-05 -0.013702155 -0.050839365 -0.074688874
000080 ef 62 da bb 81 99 c6 bd 4c 17 a9 3c cd 3c b0 bd
       -0.006664626 -0.09697247 0.020640992 -0.08605347
000090 0b cb 31 bc 83 8b 1a 3c 34 f4 43 bc 14 74 38 bd
       -0.010851632 0.009432676 -0.011960078 -0.045032576
0000a0 ec 96 04 bd af 0d ec bd 87 52 55 bc 5b 8f 81 bd
       -0.032370493 -0.115260474 -0.013020164 -0.06326171
0000b0 d9 07 c3 b7 f1 08 9d bb 21 3c 18 be 35 c6 73 b6
       -2.3249466e-05 -0.0047923257 -0.14866687 -3.6325193e-06
0000c0 3e 22 74 ba a0 94 ad b8 01 2a 08 bd e0 8d 95 bd
       -0.0009312964 -8.2769664e-05 -0.033243183 -0.07302451
0000d0 53 c7 6b bd 15 54 1e 3d 03 a3 5c bc c8 22 17 3c
       -0.057563137 0.038654406 -0.013466599 0.009224601
0000e0 ad 1c 4d bc 25 d1 98 ba 0d 7b ba bc d0 76 2c 3c
       -0.012519044 -0.001165901 -0.022763753 0.010526374
0000f0 00 00 00 00 2f a1 90 bd 03 4b 74 bd 9e 61 05 bc
       0.0 -0.07061993 -0.05964185 -0.0081409495

conv2.weight f4 [32, 64, 5, 5]
000000 75 dc 76 bc a5 61 b9 bc a4 cb aa ba 49 7a 1a bd
       -0.0150672095 -0.022629568 -0.001303066 -0.037714276
000010 87 06 93 bc 35 11 44 3c eb 9d 95 3a ec 90 2c bd
       -0.017947448 0.011966993 0.0011414861 -0.042130396
000020 b0 b5 2c 3c ef ba 15 3d 7d fa 0b 3d 8c ce 1f 3c
       0.010541365 0.036555227 0.03417443 0.009753834
000030 c7 c0 c7 3b fb ab ee bb b0 9f cd bc 00 cc 1c bc
       0.006095979 -0.0072836853 -0.025100559 -0.009570122
000040 b2 c3 57 3c 0b e1 05 3d 90 97 dc 3b 0a 5b 7e 3c
       0.013169216 0.03268532 0.006731935 0.015524635
000050 9f 11 71 bc 72 44 b5 3c e3 48 af 3a 25 4d 58 3c
       -0.014713674 0.022127364 0.0013373162 0.013201986
000060 34 74 aa bc 77 0f 25 bd 9a c9 08 3d d8 fd 34 3c
       -0.020807363 -0.04029795 0.033395387 0.011046849
000070 07 7a 5d 3c bd 19 da 3c 38 a1 22 bc 34 6c eb 3b
       0.013517863 0.026623601 -0.009926133 0.0071845297
000080 18 47 c2 bb b9 95 9b 3b fd 5c a0 bc f2 3b 29 3c
       -0.005928885 0.004748073 -0.01957559 0.0103292335
000090 12 08 c2 bc 19 80 ac 3b 65 35 de ba da e3 ed bb
       -0.023685489 0.005264294 -0.0016953169 -0.007259828
0000a0 f8 41 96 3c cc dd ac bb 73 19 06 bc 1f 4a 26 bd
       0.018342003 -0.0052754637 -0.0081847785 -0.04059803
0000b0 bd 08 3a 3b 33 38 14 bd aa a8 7f b9 f3 e9 dc 3b
       0.0028386556 -0.03618641 -0.00024381527 0.006741756
0000c0 f3 a1 77 3c b4 08 50 3d 1f 3c 96 3c bf d0 91 39
       0.015114295 0.05078955 0.018339215 0.00027812083
0000d0 81 25 82 bc ae d6 e4 bc 29 e4 09 3d a0 49 0d bc
       -0.015887024 -0.027934399 0.033664856 -0.008623511
0000e0 6c 42 7d bc e1 5f ed 3c 64 94 68 3a da e6 b1 39
       -0.015457731 0.028976383 0.00088722096 0.0003393207
0000f0 59 03 a7 3c 11 91 17 bd 32 2e 80 bc ac 0f 3b bd
       0.020387338 -0.03700358 -0.015647028 -0.045669243
000100 7d a7 45 ba b6 37 e8 3c df 0a fe bb ac 68 2c 3d
       -0.00075399113 0.028346878 -0.007752761 0.04209201
000110 fe 7d d4 bc dc 5d ac bc c4 08 3a bd 6b a7 47 3c
       -0.025938984 -0.02104085 -0.045418516 0.012185912
000120 0e 93 52 bc 19 27 bb 3c 03 0a 62 bc ab c1 1b bd
       -0.012852443 0.022845792 -0.013796332 -0.038026493
000130 ce 15 48 3d a8 18 50 bd a3 ee 81 bb fa c1 30 3d
       0.04884892 -0.050804764 -0.0039652153 0.04315374
000140 ad 30 89 bc f5 6f ef 3c db 5c be bb 83 c0 11 bb
       -0.016746843 0.02922819 -0.005809409 -0.002223999
000150 34 b0 36 3d 8c 4f 1e bb 84 e2 8d bc b1 df 6d 3c
       0.044601634 -0.00241563 -0.017319925 0.014518664
000160 6a c9 54 bc 3e 7e 07 3c ca f2 14 3d 68 d3 39 3d
       -0.012987474 0.008269845 0.036364354 0.04536763
000170 ad 1f b6 3c c5 01 e0 bc 2c 91 f1 3b 87 da f3 bc
       0.022231901 -0.027344594 0.007372042 -0.029767288
000180 4b 9b c7 ba 7a 68 08 3d e0 05 7a bc 96 e7 3a bd
       -0.0015228776 0.03330276 -0.01526019 -0.045631014
000190 d1 a1 4e b8 2c ef bd 3a 9c f4 5a 3c e0 24 74 bc
       -4.926493e-05 0.0014490834 0.0133639835 -0.01490137
0001a0 ef 17 e9 bc 6c 6f ee bc 41 27 6d 3c f8 ad 99 3c
       -0.028453795 -0.029105864 0.014474691 0.018759713
0001b0 cc 62 0e bc 55 88 60 3a a2 9d 90 bb 58 97 d7 3c
       -0.008690547 0.0008565237 -0.0044133225 0.026317284
0001c0 0c 83 9a 3a 2e e8 34 bc 61 c4 82 3c 43 c2 1b bd
       0.0011788323 -0.011041684 0.015962781 -0.03802706
0001d0 4e 1d f8 3b cb 27 fa 3c 6c b9 c5 bc 8e 49 9d bc
       0.0075718528 0.030536553 -0.024136268 -0.019200113
0001e0 59 3a 78 3c 12 87 1a 3b d3 67 20 3d 4a ab f4 3c
       0.01515063 0.0023579043 0.039161514 0.029866833
0001f0 cf 4a 6c bb 07 34 fa 3b d0 ed d6 3c 45 d1 e6 bc
       -0.0036055332 0.0076355967 0.026236445 -0.02817596
000200 8c 12 3f bc 2f 80 4a bd 68 3d ee 3b 9b 72 81 3c
       -0.011662137 -0.04943865 0.007270504 0.015801718
000210 8a 59 d4 3c 06 fe 46 3b ac 57 ce 3c 9f dc 21 3b
       0.025921602 0.0030363812 0.02518829 0.002469815
000220 0f 2d f2 bc 20 f9 76 3c 8b b6 02 bd 54 7b 52 3c
       -0.029562501 0.0150740445 -0.031912368 0.0128467865
000230 02 2d 8d bc 0e 25 7f 3b d9 f0 cb bc 2f 8d 37 bc
       -0.017233375 0.0038931998 -0.024895119 -0.011203094
000240 96 71 19 bd 79 e5 27 3d fb 48 4d bb c9 69 b2 bc
       -0.03746184 0.040990327 -0.0031324017 -0.021778958
000250 ce 6b b3 3c 84 d5 2b 3c 91 b9 ad 3b 9f db f3 3c
       0.021901991 0.010487918 0.0053016623 0.02976781
000260 d5 bc 8d bc 89 33 ac bc 98 17 0b bc b1 05 b3 3c
       -0.017301956 -0.021020668 -0.008489512 0.0218533
000270 94 62 25 3d b8 c4 98 bc 68 f8 19 bc ac 7b 16 bd
       0.040377215 -0.01864849 -0.009397604 -0.036739036
000280 70 01 a1 bb 62 42 4f 3c 81 8c dd bc 55 1a 14 3d
       -0.0049135014 0.012650104 -0.027044537 0.036157925
000290 53 5d 91 bc d7 5c 9a bc 8d 0e 86 bc 03 cb dd 3a
       -0.017744696 -0.018843098 -0.01636436 0.0016921464
0002a0 9a 02 42 bc b3 7d 13 bc 1c 1a 56 3d a6 9f 04 3c
       -0.011841441 -0.009002137 0.052270994 0.008094704
0002b0 dc 94 4a bd 12 43 98 3c 81 a0 49 bb 37 ff 4c bd
       -0.04945837 0.01858667 -0.0030765834 -0.05004808
0002c0 48 23 e4 3b 0b 6f 5a bd e4 ef 13 3d c7 9e d1 bc
       0.0069622137 -0.053328555 0.03611745 -0.025588406
0002d0 83 c5 07 bd 15 85 65 bc 94 01 75 bc b5 bb 48 bd
       -0.033147346 -0.01400878 -0.01495399 -0.049007136
0002e0 4a 7f db 3c ad f9 38 3c 66 70 9a 3b 79 75 2b bd
       0.026794095 0.011289996 0.004713106 -0.041860078
0002f0 59 14 7e bc c7 d5 5c 3b 88 a2 12 bc 0b 46 b2 bc
       -0.015507781 0.0033696757 -0.008949883 -0.021761915
000300 e0 4a 1a 3d fa 97 5f bc 26 a2 5a bb 8e ba f2 bb
       0.037669063 -0.013647074 -0.0033360808 -0.007407493
000310 34 2e 25 bd cd 5e 29 3c 0d 97 77 bc 9e 2c 39 bd
       -0.040327266 0.010337544 -0.015111697 -0.045208566
000320 35 4a 90 3b 06 6f 57 bd 75 54 fb 3b 12 d7 57 3c
       0.0044033774 -0.052596115 0.00766998 0.013173835
000330 61 e7 9c 3b 33 69 ce ba cd 4e 04 bd 2e 57 45 3d
       0.0047883247 -0.0015747905 -0.032301713 0.048178844
000340 00 8d 0c 3c df 9e 43 3d 15 91 00 bd 6b ba 2e 3c
       0.008578539 0.047758933 -0.03138836 0.010664563
000350 10 58 98 bb 59 5d 47 3d b3 1d cd bc 63 13 0b 3d
       -0.0046491697 0.048673008 -0.025038576 0.033954035
000360 7c 1c 09 3c 19 47 9d ba c1 52 ff bc da 3e c0 3c
       0.008368608 -0.0011999338 -0.03116739 0.02346747
000370 0b 72 8a bc b5 ae 73 3c f3 46 43 bc f0 e7 7d bc
       -0.016900083 0.014873196 -0.011918771 -0.015497193
000380 db 4f 99 3b a4 8e 0a bd 63 b7 63 bd 5f 0c 59 ba
       0.004678709 -0.03382744 -0.055594813 -0.00082797365
000390 b0 25 42 bd 9e db a6 bb d9 4d e5 3c b2 dd 3a bc
       -0.047399223 -0.0050920984 0.027991222 -0.011405395
0003a0 6c 96 a5 3c 28 21 eb 3c c0 a1 88 bc 3e 56 d9 3b
       0.020213328 0.028702334 -0.01667869 0.0066325953
0003b0 ae 52 06 3c 04 f7 ce 3b 3a 2a b0 3c 7d 32 5d bd
       0.008198423 0.0063160677 0.02150451 -0.054003228
0003c0 6d 9d 76 3b 7d 1e eb bb 02 2d 6a 39 bb 35 14 bd
       0.0037630454 -0.0071752653 0.00022332746 -0.036184054
0003d0 63 48 a7 3b 84 5e af 3c 7e 19 b6 bc df ba 24 3b
       0.0051050647 0.021407373 -0.022228952 0.0025135798
0003e0 58 92 ba bc ea dc 37 3d 15 84 44 3c e4 fa e6 3c
       -0.02277486 0.044888414 0.011994381 0.028195806
0003f0 d0 b1 91 3b 7e 7e 95 3c 95 da 2f bc 5a 90 0a bc
       0.0044462457 0.018248793 -0.010733266 -0.008457268

conv2.bias f4 [32]
000000 74 17 87 bd dd ea 90 bc 1d 5d 39 bd a3 d8 30 be
       -0.0659627 -0.017690117 -0.045254815 -0.1727014
000010 fb a6 64 bd b6 6c 2c bd a5 52 37 bd ea ff da bd
       -0.055823307 -0.042095862 -0.04475655 -0.10693343
000020 33 ca 0e bc 61 01 25 bd bb d8 75 bd c7 4a a9 bc
       -0.0087152 -0.04028452 -0.060021143 -0.02066554
000030 e1 85 ae bc 6f 5b 8d bd 81 fa cf bc 93 4c d7 bd
       -0.021304073 -0.06902205 -0.025388004 -0.10512652
000040 00 00 00 00 c0 85 60 ba 99 a3 73 bd 00 00 00 00
       0.0 -0.0008564852 -0.05948219 0.0
000050 55 a0 e3 bd ce b0 9f bb be 19 b8 bc aa cb ef bd
       -0.11114565 -0.0048733717 -0.022473212 -0.11708768
000060 0d 36 ea bc 02 82 00 bb 4e ee db bd 93 c4 0a bc
       -0.028590227 -0.001960874 -0.107388124 -0.0084697185
000070 70 06 43 bd d3 77 57 bc 64 c7 b6 bd f9 8f dd bc
       -0.04761356 -0.013151127 -0.089247495 -0.02704619

conv3.weight f4 [4, 32, 5, 5]
000000 f8 bc 4a bd 95 46 6a 3d ec 0c 94 3d af 05 4f 3d
       -0.04949662 0.05719622 0.07229027 0.05054253
000010 41 2b e3 bc 47 9e eb bc 60 60 9d 3b 34 d9 5a bd
       -0.027730586 -0.028761996 0.0048027486 -0.053429797
000020 02 0f 76 bc 04 ef 11 bc 55 9f 37 bd b8 48 e5 bc
       -0.015018227 -0.008907083 -0.044829685 -0.027988777
000030 19 c8 31 bd fb d7 45 bd 77 87 34 3d 46 52 f8 bc
       -0.04340372 -0.04830168 0.0440745 -0.030312669
000040 c6 18 97 bc e3 4e 04 bd 73 74 83 3d d7 84 f6 bc
       -0.01844443 -0.032301795 0.06418695 -0.03009264
000050 02 36 64 bc 03 10 c7 3b ca 47 1b bd e5 5e 2b 3d
       -0.013928892 0.006074907 -0.03791026 0.041838545
000060 76 99 a0 3c 60 66 58 3d 83 4c a2 bc 46 b5 b1 bc
       0.019604426 0.052832007 -0.019811874 -0.021692883
000070 fa 53 78 bc c9 4c 32 3d 6a b9 89 bc 44 4d ac bb
       -0.01515674 0.04353026 -0.016812045 -0.005258234
000080 08 df 44 bc c3 ec fd 3a 05 84 6b bc b0 98 d9 ba
       -0.012016065 0.0019372929 -0.014374738 -0.001660129
000090 c2 36 60 ba fd c3 89 bd ff 89 c9 3c 9d e0 95 bc
       -0.00085530814 -0.06726835 0.024601934 -0.01829558
0000a0 4c 3e e1 3a f8 53 da 3c cc 5b 01 3d 21 be 71 3d
       0.0017184704 0.026651368 0.031581685 0.05901921
0000b0 ee 0b 56 bd 30 3e 19 bd b2 b6 20 bd 29 93 a2 3b
       -0.05225747 -0.037412822 -0.03923673 0.0049613905
0000c0 28 b4 85 3b 31 35 52 3b 31 10 09 bd 39 af 18 bd
       0.004080314 0.0032075162 -0.033462707 -0.03727648
0000d0 e9 26 e4 3b 50 97 19 3a d6 08 13 3a ac 4c 05 3d
       0.0069626463 0.0005859034 0.00056089216 0.032543823
0000e0 c9 a8 ce 3c a6 9f a0 3c 62 9f 36 3d c3 9a 3d bd
       0.025226967 0.019607376 0.044585593 -0.04629017
0000f0 53 dd 36 bd ae f8 ab 3c f0 9b 45 3b 81 8c a9 3c
       -0.044644665 0.020992603 0.003015276 0.02069688
000100 77 04 5a 3c b2 f0 e7 3c 08 07 91 3d 35 54 74 3d
       0.013306729 0.028313015 0.07081419 0.05965062
000110 c6 8b 78 3d e9 b9 a7 3c d4 2c d1 bc ec e7 a9 bc
       0.060680173 0.020474391 -0.025534071 -0.020740472
000120 dc 93 e2 3c 7c 20 f5 3c 70 a3 c8 3c 28 39 5a bd
       0.027658395 0.029922716 0.024491996 -0.053277165
000130 2e b3 89 3c b0 73 83 3b 07 43 90 bd a1 cf 5c bd
       0.016809072 0.0040115938 -0.070440345 -0.053908948
000140 55 8f 4a 3b 59 5f 8e bc 12 26 87 bd 98 b8 4b 3d
       0.0030908186 -0.01737945 -0.06599058 0.04973659
000150 58 31 44 3d d8 31 75 bd b5 7d 1b 3d dd bd 8d 3c
       0.04789862 -0.059861988 0.03796168 0.017302448
000160 50 50 16 bd 5c b3 08 bd 3b ad 3b bd 96 c4 22 3d
       -0.036697686 -0.033374175 -0.045819502 0.03973826
000170 a5 f4 25 3d 36 94 78 bd c1 ee 36 3c 0e 3c 2e bb
       0.040516514 -0.06068822 0.011165322 -0.0026586088
000180 2e c2 12 bd ce a5 e2 bc 13 26 3f 3d d0 e5 3d 3d
       -0.035829715 -0.027666952 0.04666717 0.046361744
000190 9e ac 94 bd b2 19 fe 3b 42 e1 46 bb 6c bc 19 3d
       -0.072594866 0.007754528 -0.0030346666 0.03753321
0001a0 1c b1 7d 3c f8 da 71 3c 65 5e 89 3d 75 d2 16 bd
       0.015484121 0.014761679 0.067074575 -0.0368218
0001b0 f3 db 20 3d 84 a8 a5 bc 47 52 25 3d 43 cb 36 bc
       0.03927226 -0.020221956 0.04036167 -0.01115686
0001c0 4a cc 25 3b 12 de 8b bb 1f e6 b8 bc cf a1 89 3c
       0.0025298768 -0.004268416 -0.022570668 0.01680079
0001d0 9f 6f de 3a 68 9d 10 bd 35 73 d5 3b d4 2a b3 bc
       0.0016970522 -0.035306364 0.006513978 -0.021871008
0001e0 35 3d 0c bd d2 48 8c 3c da 94 cd 3c 49 3e 09 3d
       -0.03423806 0.017124567 0.025095392 0.033506665
0001f0 19 00 41 bd d5 09 43 bd d9 f7 c1 b9 35 2a 3e bd
       -0.047119234 -0.0476168 -0.0003699649 -0.04642697
000200 30 21 93 3d be 4c 25 bd 8b a0 76 bc 2e b5 01 bc
       0.071840644 -0.04035639 -0.015052925 -0.007916732
000210 b8 c2 94 3c a6 d7 18 3a ac fd a7 bb b2 ae f5 bc
       0.018159255 0.0005830474 -0.0051266756 -0.029990528
000220 e9 8d 14 bd aa b1 d2 bc 9b 71 6e 3c 17 bf 71 3d
       -0.03626815 -0.025719482 0.014553453 0.059020128
000230 44 ae a5 3d 39 65 43 3d bd 00 3c 3c d9 8f e7 bc
       0.08089879 0.047703955 0.011474785 -0.028266834
000240 bd 88 15 bd e5 6a 42 bc 20 32 39 3d 22 16 89 bc
       -0.036507357 -0.011866306 0.04521382 -0.016734187
000250 1f b2 c4 3b 45 0e 2f 3c c8 e0 16 3c 5a 4f 01 3d
       0.006002679 0.010684554 0.009208865 0.031569816
000260 90 33 d2 bc 4f 68 9a bc 02 11 96 3c ad b5 84 3c
       -0.025659353 -0.018848566 0.018318657 0.016199911
000270 f2 1b 41 3c b9 48 9e bc b7 3d f3 bc f5 ba d2 3b
       0.011786448 -0.019321786 -0.029692514 0.0064309784
000280 dd c6 64 bc 27 16 69 3c e7 92 73 3d 92 66 1d bc
       -0.013963428 0.014226473 0.05946627 -0.009606974
000290 7e a5 71 bd 60 43 96 bd 4c c9 49 3c 20 34 af 3c
       -0.058995716 -0.073370695 0.012316059 0.02138716
0002a0 0d 39 29 bd 41 b3 38 3d 8a 80 37 3b e6 de 4a bd
       -0.041314173 0.045092825 0.00280002 -0.04952898
0002b0 35 e6 7b bc 1e 97 8c 3d 79 07 4b 3d 74 28 41 bd
       -0.01537471 0.06864761 0.049567673 -0.04715772
0002c0 9b 83 4e 3c 4c 20 86 3c b8 cc 00 3c 1a 19 c8 3c
       0.012604619 0.016372822 0.007861309 0.024426032
0002d0 c2 cb 96 3c 52 32 4a 3c 39 17 bd bb 2c 45 aa 3c
       0.018407706 0.012341099 -0.0057705906 0.020784937
0002e0 b6 2d da bc 5f bc 1d 3d 26 39 3d 3d 44 50 da bc
       -0.026633125 0.038509723 0.04619708 -0.026649602
0002f0 f4 f9 36 bd bc 93 47 3b 97 ee ff 3c d4 31 fb bc
       -0.044671968 0.0030453047 0.031241698 -0.030663408
000300 ef 25 97 bb 2a 09 14 3c 65 fc 31 3c 4b 41 24 3d
       -0.0046126763 0.009035388 0.010863398 0.04010133
000310 7a 8d b8 ba 7d 52 6b bd 4b 95 4c bd 4e 77 1d bd
       -0.0014080249 -0.057451714 -0.049947064 -0.038443856
000320 65 cb 0a bd d6 71 50 3d dd 71 6d 3c e4 82 00 3c
       -0.03388538 0.050889812 0.014492479 0.007843707
000330 8f c4 e6 bc 04 ac 58 bc d9 b5 07 3d ad 61 10 3b
       -0.028169898 -0.0132246055 0.033132408 0.0022030876
000340 65 79 38 bc b6 c5 bf bc 4e ba 51 bd e3 e7 34 bd
       -0.011259411 -0.023409706 -0.051203065 -0.044166457
000350 50 81 4b bb 37 b7 ed bc c5 62 f4 3c 03 13 c7 3c
       -0.0031052418 -0.029018028 0.029832253 0.024301058
000360 f8 15 64 bd 27 f0 7c bd 9b 2e 88 3d 2d c3 6e bd
       -0.055685014 -0.061752465 0.06649514 -0.058291603
000370 da 83 43 3d e3 c9 9d 3c 30 a5 f9 3c 3f 7f 3f 3d
       0.047733165 0.019261306 0.030474275 0.04675221
000380 1a 29 3e bd 71 c4 35 bd f3 39 92 3c ad dc 93 3d
       -0.046425916 -0.044376794 0.017849898 0.07219825
000390 e5 4f 95 3d ad 46 12 bd 66 84 82 bd 20 fa 6d bd
       0.07290629 -0.035711933 -0.06372909 -0.058099866
0003a0 ae b1 05 3d ba 13 a7 bc 17 3b 79 3d 07 73 6f 3c
       0.03264015 -0.020395149 0.060847368 0.014614827
0003b0 72 74 2b bd 48 94 08 bd c4 a5 2f 3c 0e ef 7d bc
       -0.041859098 -0.033344537 0.010720674 -0.01549889
0003c0 45 40 ff 3b 0c 51 b9 3c 66 d3 28 3b 02 e3 f7 3c
       0.007789644 0.022621654 0.002576077 0.030259613
0003d0 34 d4 2d 3d f7 db e3 3c 27 30 fd 3c 3e 9a 9d bd
       0.0424387 0.027814848 0.03090675 -0.07695435
0003e0 95 be 6c bd 4e c8 e3 bc 60 41 dd 3c f1 3c 1b bb
       -0.05779894 -0.027805474 0.027008712 -0.0023687447
0003f0 47 65 86 ba 5a 4b 58 bd 61 f3 c7 3c f1 f1 68 3d
       -0.0010253572 -0.052806236 0.024408044 0.05687136

conv3.bias f4 [4]
000000 5c 3b 0f ba a0 62 75 ba c4 00 8e ba ae 55 5c 39
       -0.00054638623 -0.00093607046 -0.0010833968 0.00021012753
